VietaPell_best_weights.pth (torch, 426601 bytes, 7 tensors)

trigkan1.vp_coeffs f4 [784, 32, 4]
0.037056077 -0.036861327 0.03675473 -0.037424974 0.029320557 -0.029547468 0.029213915 -0.02915667
0.03638054 -0.036736276 0.03687103 -0.03653591 -0.043958526 0.044943873 -0.044177078 0.04439006
0.04239249 -0.042808123 0.042473827 -0.042675294 -0.008052731 0.007989042 -0.008028325 0.008454256
0.018258298 -0.018232921 0.01789461 -0.01810832 -0.031578068 0.03175144 -0.031652648 0.0317617
0.0057082134 -0.0056158695 0.0066331374 -0.0065696375 0.031453583 -0.031714976 0.031710934 -0.031780276
0.034344625 -0.0338965 0.03450116 -0.034584202 0.018126408 -0.018195063 0.017667783 -0.018224858
0.0029095304 -0.0032931902 0.0026375742 -0.0027651156 -0.023874173 0.024207322 -0.024258822 0.02399249
-0.028416956 0.02830748 -0.028633827 0.028240345 0.021136202 -0.021979302 0.021202508 -0.0215443
0.024202937 -0.023852685 0.023551172 -0.024424186 -0.017210547 0.017769072 -0.017512603 0.017159842
0.03225681 -0.032906596 0.032446414 -0.033483054 -0.0036204956 0.0035645044 -0.003889671 0.0036390927
-0.028948603 0.028541023 -0.028677894 0.028798694 -0.042882603 0.04276483 -0.0425917 0.042058278
-0.023219442 0.023876814 -0.023552919 0.023682034 0.020017968 -0.019411333 0.019207776 -0.019148137
-0.029838528 0.030079817 -0.029924303 0.030182641 -0.0013280816 0.0014085121 -0.0011657921 0.0013555434
-0.007635116 0.0073325136 -0.007714796 0.007441506 -0.021404376 0.022152148 -0.0218453 0.021695955
-0.008913022 0.009054614 -0.008512754 0.008608195 0.011957817 -0.011600444 0.012249924 -0.01199212
-0.044909265 0.04404914 -0.044668004 0.04476113 -0.011907846 0.012368078 -0.011629514 0.012513601
0.037522785 -0.03764639 0.03759028 -0.037951183 0.029869497 -0.028534478 0.029514305 -0.029291028
0.03659458 -0.03570966 0.036553793 -0.035119895 -0.044901524 0.043876223 -0.044008013 0.044034906
0.04324768 -0.041766904 0.043067805 -0.042546682 -0.007928864 0.005271657 -0.007994252 0.005140802
0.017403772 -0.020439358 0.017748049 -0.021032698 -0.031446178 0.029935112 -0.031730104 0.030351043
0.005984708 -0.0057420842 0.005829097 -0.005863896 0.03215426 -0.03137243 0.031888496 -0.031723026
0.034286294 -0.03239929 0.034100473 -0.03276688 0.01784492 -0.018464187 0.018194655 -0.017410444
0.003001043 -0.003121339 0.0036834318 -0.0023021665 -0.024038399 0.024294566 -0.023995535 0.02386797
-0.028358439 0.030555017 -0.02855777 0.029974999 0.021734422 -0.021783227 0.022040524 -0.022053333
0.023990242 -0.023361066 0.023532463 -0.022968752 -0.017389942 0.01819686 -0.01762856 0.01807889
0.03193158 -0.03164297 0.032724533 -0.03165597 -0.003394584 0.0036000363 -0.003290603 0.003458335
-0.029195046 0.028379872 -0.029159969 0.02914166 -0.04334004 0.043104228 -0.04284241 0.042813968
-0.023198893 0.022674631 -0.023412433 0.022573965 0.019226234 -0.018971188 0.019303411 -0.019618431
-0.029685117 0.027010635 -0.029552193 0.0269456 -0.001893686 -0.00050232036 -0.0009215859 -0.00029058242
-0.008558744 0.0073846057 -0.0077351043 0.007504029 -0.0216662 0.021253794 -0.021798594 0.021385996
-0.008659087 0.00993472 -0.00873167 0.009944231 0.01200545 -0.011951786 0.012004377 -0.011757376
-0.04439718 0.047112167 -0.04422386 0.04735696 -0.012031388 0.0114902705 -0.011913244 0.011484754
00000000: 1dc8 173d e7fb 16bd 218c 163d ee4a 19bd
00000010: aa31 f03c 880d f2bc 0552 ef3c f8d9 eebc
00000020: c303 153d c778 16bd 1406 173d aea6 15bd
00000030: db0d 34bd 1117 383d 06f3 34bd 5ad2 353d
00000040: bfa3 2d3d 9257 2fbd 09f9 2d3d 4acc 2ebd
00000050: 9aef 03bc 79e4 023c 3c89 03bc b883 0a3c
00000060: 6d92 953c 355d 95bc b897 923c e657 94bc
00000070: 0158 01bd cc0d 023d 35a6 01bd 8e18 023d
00000080: f70b bb3b 5405 b8bb ca5a d93b 1d46 d7bb
00000090: 79d5 003d 90e7 01bd 53e3 013d 092c 02bd
000000a0: f3ac 0c3d 0ed7 0abd 1751 0d3d 2aa8 0dbd
000000b0: d57d 943c d00d 95bc 07bc 903c 4c4c 95bc
000000c0: d2ad 3e3b 90d2 57bb 27db 2c3b f136 35bb
000000d0: c593 c3bc 6f4e c63c 70ba c6bc e68b c43c
000000e0: adca e8bc 17e5 e73c 7d91 eabc 4c58 e73c
000000f0: d425 ad3c f00d b4bc e2b0 ad3c ac7d b0bc
00000100: 3d45 c63c b566 c3bc 63ee c03c 3b15 c8bc
00000110: 22fd 8cbc 7290 913c 9776 8fbc cc92 8c3c
00000120: b81f 043d 11c9 06bd 88e6 043d 8725 09bd
00000130: d645 6dbb 769a 693b dae9 7ebb d87d 6e3b
00000140: 9f25 edbc ddce e93c e7ed eabc 3deb eb3c
00000150: aba5 2fbd 2d2a 2f3d a274 2ebd 4d45 2c3d
00000160: b336 bebc 4f99 c33c 0df2 c0bc d300 c23c
00000170: b9fc a33c 8404 9fbc a059 9d3c 8edc 9cbc
00000180: ee6f f4bc f369 f63c d023 f5bc 9641 f73c
00000190: 0613 aeba d39d b83a 7ecd 98ba 7dac b13a
000001a0: ff2f fabb 9545 f03b 66cc fcbb e0d7 f33b
000001b0: 3b58 afbc 6c78 b53c eaf4 b2bc b7bb b13c
000001c0: ec07 12bc ce59 143c 1479 0bbc 6309 0d3c
000001d0: b8ea 433c ca0f 3ebc e8b3 483c 997a 44bc
000001e0: c7f2 37bd df6c 343d ccf5 36bd 7257 373d
000001f0: 2019 43bc 7ba3 4a3c b889 3ebc d905 4d3c
00000200: 7eb1 193d 1a33 1abd 44f8 193d b372 1bbd
00000210: e0b0 f43c 23c1 e9bc fcc7 f13c bdf3 efbc
00000220: 33e4 153d 4b44 12bd 6eb9 153d e1d9 0fbd
00000230: a9ea 37bd 8eb7 333d bf41 34bd f25d 343d
00000240: 7b24 313d c613 2bbd de67 303d 6e45 2ebd
00000250: 11e8 01bc ddbd ac3b 53fa 02bc 2c74 a83b
00000260: 5b92 8e3c 7170 a7bc 5b64 913c c44c acbc
00000270: b5cd 00bd 7b3a f53c 6df7 01bd c0a2 f83c
00000280: 5f1b c43b 1828 bcbb 0202 bf3b ed25 c0bb
00000290: 2fb4 033d 6180 00bd 839d 023d 01f0 01bd
000002a0: c96f 0c3d 1eb5 04bd f0ac 0b3d 9036 06bd
000002b0: 822f 923c 3542 97bc f50c 953c 59a0 8ebc
000002c0: 26ad 443b 618f 4cbb bb65 713b f2df 16bb
000002d0: 2dec c4bc 6605 c73c 4992 c4bc c386 c33c
000002e0: f54f e8bc 844e fa3c fcf1 e9bc 218e f53c
000002f0: 630c b23c bd72 b2bc 548e b43c 31a9 b4bc
00000300: 2f87 c43c b55f bfbc 27c7 c03c f728 bcbc
00000310: 5a75 8ebc 9511 953c c569 90bc 2e1a 943c
00000320: b0ca 023d 0f9c 01bd 290a 063d b1a9 01bd
00000330: ab77 5ebb 96ee 6b3b 28a7 57bb 3ca5 623b
00000340: 732a efbc e87c e83c e3e0 eebc 7eba ee3c
00000350: 5385 31bd 0f8e 303d 867b 2fbd b35d 2f3d
00000360: 9b0b bebc 26c0 b93c 6ecb bfbc 09ed b83c
00000370: 5680 9d3c 7769 9bbc 3022 9e3c d5b6 a0bc
00000380: 342e f3bc 6845 dd3c 7117 f2bc 05bd dc3c
00000390: 8f35 f8ba 26ae 03ba 9596 71ba 5059 98b9
000003a0: f939 0cbc 90fa f13b c276 fdbb 5ce4 f53b
000003b0: 517d b1bc 701c ae3c f792 b2bc af31 af3c
000003c0: d8de 0dbc 3cc5 223c 470f 0fbc 21ed 223c
000003d0: 82b2 443c 6cd1 43bc 02ae 443c 02a2 40bc
000003e0: d1d9 35bd b0f8 403d 1424 35bd 5ff9 413d
000003f0: 4c1f 45bc b041 3c3c c42f 43bc 8d2a 3c3c

bn1.weight f4 [32]
1.3843886 1.732918 1.8050267 1.9397821 1.7651153 1.2015842 1.4049622 2.6563358
1.581735 1.7256157 0.8933777 2.1110718 2.0114846 1.3320191 1.2747082 1.3469472
1.238512 1.1888593 1.8706263 2.1221468 1.6961989 1.5165555 2.2009645 1.7537789
1.4632684 1.5930899 2.0830672 1.7424637 1.9144217 1.920479 1.8880373 1.2452883
00000000: a533 b13f 42d0 dd3f 1d0b e73f c84a f83f
00000010: 4cef e13f 83cd 993f cdd5 b33f 6801 2a40
00000020: 4b76 ca3f fae0 dc3f 67b4 643f cd1b 0740
00000030: 2abc 0040 9a7f aa3f a329 a33f c468 ac3f
00000040: 9087 9e3f 8b2c 983f af70 ef3f 41d1 0740
00000050: 0c1d d93f 7e1e c23f 9adc 0c40 d47b e03f
00000060: 614c bb3f 5fea cb3f f950 0540 0d09 df3f
00000070: c50b f53f 42d2 f53f 35ab f13f 9b65 9f3f

bn1.bias f4 [32]
-0.30683917 -0.31853476 -0.061188105 0.36769584 0.027800133 -0.016241223 -0.6309198 -0.05489629
0.011243496 0.13737974 -0.46476334 -0.081914194 -0.4267199 0.5193245 0.42037517 -0.4462591
-0.33247772 -0.096922025 -0.3235944 -0.46436983 0.16473119 -0.057116143 0.1082648 0.3930525
0.093498595 -0.044381466 -0.19506559 0.18199524 0.06732321 0.39728224 0.07613535 0.24640709
00000000: 061a 9dbe fd16 a3be 61a0 7abd a142 bc3e
00000010: 1bbd e33c 500c 85bc f683 21bf efda 60bd
00000020: a436 383c 46ad 0c3e 76f5 edbe a1c2 a7bd
00000030: 087b dabe 73f2 043f 6a3b d73e 137c e4be
00000040: 853a aabe 0e7f c6bd 2aae a5be e2c1 edbe
00000050: 4baf 283e 9ef2 69bd efb9 dd3d 2d3e c93e
00000060: 317c bf3d 57c9 35bd 46bf 47be f65c 3a3e
00000070: c0e0 893d 9468 cb3e daec 9b3d 2452 7c3e

trigkan2.vp_coeffs f4 [32, 32, 4]
0.08229889 0.2136724 0.08501502 0.1658801 -0.011683165 0.31806573 0.016735308 0.29187262
0.02387462 -0.300282 0.12457207 -0.24474977 -0.016378354 0.26284927 -0.01729166 0.15394075
0.055274237 0.45076695 -0.049031433 0.41944087 -0.021536054 0.32293338 0.031931374 0.36442143
0.006652492 -0.13913213 -0.0046590706 -0.13746786 0.07624527 -0.32307225 -0.03127538 -0.3900664
0.062798545 0.18271662 0.044053905 0.11760988 -0.016659454 -0.57386583 -0.033031397 -0.49788862
0.000535187 -0.4130007 0.17770536 -0.40608692 0.04201844 -0.15061983 -0.1825781 -0.24029547
-0.03711016 -0.30750096 -0.036061723 -0.26412195 -0.04670965 0.021037959 -0.08066122 0.018206015
0.032183703 -0.18316717 -0.04790877 -0.2234473 0.051913235 -0.17570263 -0.06171398 -0.25328267
-0.068287864 -0.23898302 0.005045972 -0.16787957 0.057226665 -0.2763572 0.16525973 -0.18335477
0.026355013 -0.01622041 0.052134763 -0.015410677 -0.063183814 0.28708905 -0.03520588 0.3273676
0.017284207 -0.20074652 0.20117429 -0.19163412 0.039707348 -0.67315626 -0.020801734 -0.678607
0.0033108813 0.10052186 -0.055352878 0.1420816 -0.027246082 0.6849145 -0.14039919 0.74333286
-0.049239203 -0.0694367 -0.043625083 -0.021046344 -0.03899539 0.13960679 0.09896214 0.13884018
0.013463797 -0.3278974 -0.1729241 -0.31678632 -0.015888516 0.18448028 0.16908163 0.22263537
0.03327769 -0.013677503 -0.049356002 -0.05666252 -0.0330614 0.17550354 -0.009913027 0.18083723
-0.04602459 0.21532467 -0.020894902 0.2153251 -0.04246863 0.11724181 0.008128638 0.14772488
0.087302685 -0.8833005 0.17852806 -0.7279004 -0.019972758 0.19625077 0.07785531 0.27727774
0.051750507 -0.10210178 -0.07348973 -0.21777758 -0.0072208815 -0.33403367 0.1464435 -0.17928746
0.046649028 -0.4139021 0.1744195 -0.23980115 -0.014520709 0.5964139 -0.05853769 0.56630516
0.0013986153 0.20193851 -0.004321745 0.20762657 0.080125235 -0.5024487 0.041729435 -0.5073948
0.07023746 -0.015023473 0.18554656 -0.02866902 -0.0119270105 0.35739723 -0.089054585 0.29205725
0.013152324 0.2474572 -0.092333674 0.10537545 0.052140858 0.14585583 0.04151554 0.05022273
-0.045232575 -0.31711 0.016415114 -0.2973524 -0.058924347 -0.18866403 -0.0061459034 -0.045897637
0.03172798 -0.0038890466 -0.03306814 -0.062609605 0.042704802 -0.10509621 -0.025001539 -0.18172932
-0.06881023 0.27842665 -0.11175367 0.18817708 0.056401104 0.0356688 0.03942348 0.00861406
0.036871836 0.04782659 -0.007518725 0.02116478 -0.07151124 0.7045774 -0.21938471 0.693452
0.029227931 -0.39079398 -0.036341105 -0.3968038 0.034179717 -0.24829552 -0.021106422 -0.31886548
0.008190263 -0.2571349 0.11636022 -0.12857817 -0.024442414 -0.29699415 0.030650774 -0.18507488
-0.052043155 -0.06202796 -0.038790055 -0.047819044 -0.016268132 0.20336618 -0.03950837 0.15456219
0.020554256 -0.06886521 -0.03169266 -0.1337984 -0.016884364 0.41127083 -0.029918263 0.3257518
0.05004122 -0.12127036 -0.00031063438 -0.13531071 -0.033987716 0.5974324 0.038984932 0.52565145
-0.044150367 -0.090519175 -0.07703406 -0.10130295 -0.040291287 0.39740995 0.021811116 0.37078273
00000000: 528c a83d f0cc 5a3e 5b1c ae3d 79dc 293e
00000010: bf6a 3fbc 83d9 a23e 7c18 893c 5470 953e
00000020: b594 c33c 90be 99be a41f ff3d af9f 7abe
00000030: e62b 86bc 2e94 863e 3da7 8dbc a5a2 1d3e
00000040: 3d67 623d edca e63e 2fd5 48bd f4c0 d63e
00000050: 616c b0bc 8657 a53e 79ca 023d 7295 ba3e
00000060: 26fd d93b a778 0ebe 1eab 98bb 60c4 0cbe
00000070: 7b26 9c3d ba69 a5be 9d1a 00bd c8b6 c7be
00000080: 869c 803d 111a 3b3e de71 343d 73dd f03d
00000090: 6879 88bc dfe8 12bf ee4b 07bd 42eb febe
000000a0: cb4b 0c3a d474 d3be 65f8 353e a0ea cfbe
000000b0: 871b 2c3d 163c 1abe c1f5 3abe 0410 76be
000000c0: d300 18bd c470 9dbe 75b5 13bd fe3a 87be
000000d0: 9e52 3fbd cc57 ac3c b631 a5bd c824 953c
000000e0: 0fd3 033d 2d90 3bbe fd3b 44bd 5ecf 64be
000000f0: f9a2 543d 64eb 33be ccc7 7cbd 44ae 81be
00000100: 82da 8bbd f7b7 74be ae58 a53b 9fe8 2bbe
00000110: 8266 6a3d b17e 8dbe d939 293e 5ac1 3bbe
00000120: 78e6 d73c aae0 84bc 438b 553d 107d 7cbc
00000130: 8466 81bd 56fd 923e 0a34 10bd ba9c a73e
00000140: 9c97 8d3c 7f90 4dbe a200 4e3e bc3b 44be
00000150: 2ca4 223d f853 2cbf 6668 aabc 30b9 2dbf
00000160: 5ffb 583b 68de cd3d b3b9 62bd d77d 113e
00000170: 2d33 dfbc 8f56 2f3f cec4 0fbe 104b 3e3f
00000180: 0caf 49bd d434 8ebd 37b0 32bd 6269 acbc
00000190: a1b9 1fbd 15f5 0e3e aaac ca3d 1f2c 0e3e
000001a0: 4297 5c3c 2be2 a7be 0413 31be d131 a2be
000001b0: a228 82bc 66e8 3c3e bc23 2d3e 87fa 633e
000001c0: 304e 083d 9b17 60bc 8529 4abd f516 68bd
000001d0: 646b 07bd 33b7 333e 406a 22bc 652d 393e
000001e0: 4884 3cbd 127e 5c3e c92b abbc 2f7e 5c3e
000001f0: 96f3 2dbd 791c f03d fb2d 053c 3145 173e
00000200: c0cb b23d fb1f 62bf 0fd0 363e ae57 3abf
00000210: e99d a3bc f6f5 483e 9b72 9f3d 59f7 8d3e
00000220: 57f8 533d bd1a d1bd c981 96bd 1601 5fbe
00000230: 259d ecbb 7606 abbe 49f5 153e 2297 37be
00000240: 0d13 3f3d faea d3be 079b 323e 6f8e 75be
00000250: 45e8 6dbc 95ae 183f 38c5 6fbd 60f9 103f
00000260: be51 b73a f8c8 4e3e 6d9d 8dbb 0f9c 543e
00000270: b318 a43d 7aa0 00bf 7cec 2a3d a0e4 01bf
00000280: a8d8 8f3d 0325 76bc ebff 3d3e 4bdb eabc
00000290: 8269 43bc c5fc b63e 4062 b6bd 8788 953e
000002a0: d87c 573c 6c65 7d3e 7019 bdbd 15cf d73d
000002b0: a791 553d 3b5b 153e 330c 2a3d 59b6 4d3d
000002c0: cb45 39bd 3e5c a2be fd78 863c 933e 98be
000002d0: a85a 71bd 2531 41be 9363 c9bb 29ff 3bbd
000002e0: 33f5 013d 60df 7ebb 7572 07bd 7739 80bd
000002f0: 3beb 2e3d af3c d7bd 07d0 ccbc 4017 3abe
00000300: 61ec 8cbd f08d 8e3e 1cdf e4bd 7eb1 403e
00000310: d804 673d 7319 123d 847a 213d fc21 0d3c
00000320: ec06 173d d0e5 433d a35f f6bb c361 ad3c
00000330: 7c74 92bd 2f5f 343f 63a6 60be 1286 313f
00000340: 6a6f ef3c 2616 c8be 69da 14bd de29 cbbe
00000350: 0800 0c3d 2e41 7ebe 60e7 acbc 5642 a3be
00000360: 7430 063c 30a7 83be 444e ee3d ffa9 03be
00000370: 753b c8bc 9e0f 98be 5517 fb3c 4584 3dbe
00000380: 342b 55bd 0811 7ebd 52e2 1ebd e7dd 43bd
00000390: bf44 85bc 393f 503e 87d3 21bd 8d45 1e3e
000003a0: 6661 a83c 3409 8dbd 2ad0 01bd 7302 09be
000003b0: 1451 8abc 1792 d23e 2517 f5bc f1c8 a63e
000003c0: 06f8 4c3d 985c f8bd a4dc a2b9 e48e 0abe
000003d0: b436 0bbd 54f1 183f aaae 1f3d 1891 063f
000003e0: 04d7 34bd 1e62 b9bd 09c4 9dbd ec77 cfbd
000003f0: 7a08 25bd 5179 cb3e 3aad b23c 3cd7 bd3e

bn2.weight f4 [32]
1.3998079 1.8578477 1.6283735 1.7979217 1.4532284 1.7887552 1.6225239 1.6840787
1.7759544 2.0504117 1.0717905 1.3004309 1.6244762 1.5666814 1.5116655 1.5815954
1.595227 1.6807455 1.914081 1.7968996 1.9999158 1.5421929 1.3986939 1.7381985
1.1555891 1.5942312 1.1684281 1.6641909 1.3487768 1.3931724 1.6739641 1.6250435
00000000: e82c b33f f4cd ed3f 8b6e d03f 4c22 e63f
00000010: 6303 ba3f eef5 e43f ddae cf3f e48f d73f
00000020: 7952 e33f f239 0340 6e30 893f 8574 a63f
00000030: d6ee cf3f 0489 c83f 417e c13f b871 ca3f
00000040: 6630 cc3f ab22 d73f 9b00 f53f ce00 e63f
00000050: 3efd ff3f 9466 c53f 6708 b33f 4a7d de3f
00000060: 58ea 933f c50f cc3f 0d8f 953f 3504 d53f
00000070: b8a4 ac3f 7953 b23f 7544 d63f 6d01 d03f

bn2.bias f4 [32]
-0.22438854 -0.074651144 0.06683015 -0.1253367 0.13159798 0.17691973 0.007562072 -0.20021527
-0.0031322294 0.07339253 0.42323703 0.2574087 0.007467352 0.027875958 0.00753917 0.23895198
-0.03654799 0.2025409 0.16939595 0.040712643 0.24886101 -0.16235657 -0.07590437 -0.07405161
0.11963096 -0.021443073 0.003212944 -0.03791898 -0.053587355 -0.28263608 -0.20978107 -0.12082325
00000000: 1cc6 65be b3e2 98bd 3fde 883d 4458 00be
00000010: 9fc1 063e 722a 353e 42cb f73b 3b05 4dbe
00000020: 1746 4dbb d34e 963d 86b2 d83e 13cb 833e
00000030: b0b0 f43b 1f5c e43c 240b f73b d4af 743e
00000040: 58b3 15bd e266 4f3e 2276 2d3e 4dc2 263d
00000050: 6cd5 7e3e cd40 26be c073 9bbd 5fa8 97bd
00000060: 1401 f53d 62a9 afbc 4190 523b ef50 1bbd
00000070: 6a7e 5bbd adb5 90be d9d0 56be 2e72 f7bd

trigkan3.vp_coeffs f4 [32, 10, 4]
-0.02531 -0.36179253 -0.16747622 -0.18291958 -0.026295872 0.45027992 0.17530714 0.4794081
0.04269925 0.16600654 -0.016802285 0.1424572 0.024857564 0.22760683 -0.0014689626 0.17901772
-0.01967084 -0.11199283 -0.019234458 -0.006546648 0.021198059 -0.1716647 -0.12019054 -0.21440926
-0.060530953 -0.05596558 -0.3284682 -0.1723935 0.03099495 -0.36917186 0.21408099 -0.30539817
-0.01629162 0.26378146 -0.04623634 0.17004073 0.005088648 -0.21559298 0.18696047 -0.20787404
-0.018875727 -0.43532115 -0.08591134 -0.36420098 -0.032736026 0.10425755 -0.05955377 0.037821054
0.046717215 -0.01318651 -0.008985232 -0.0009890064 0.044309027 0.44954947 -0.008663249 0.38836783
-0.032166492 -0.09772199 -0.006209265 -0.03859229 0.04505276 -0.011777175 0.019847754 -0.07949857
-0.059793994 -0.62215537 -0.04162468 -0.60365385 0.02342644 0.33102685 -0.2031556 0.28450218
-0.01891196 0.1850593 0.091646396 0.09429054 0.013475072 0.083725154 0.1619633 0.22486816
-0.023365488 0.48842672 0.02879503 0.47866756 -0.0284148 -0.028598323 -0.08383857 0.047228877
0.04903881 0.4789107 -0.05396025 0.4075142 0.037322238 -0.35482907 -0.0061414605 -0.31382567
-0.02969835 -0.058213294 0.1922896 -0.096446946 0.038744137 -0.21386063 -0.036395285 -0.20032494
-0.03250418 0.10422433 -0.07594625 0.114404544 0.03311817 0.004687264 -0.12706387 0.054474533
-0.028299607 -0.21103711 -0.08208781 -0.18355745 0.011171186 -0.14292946 0.19759932 -0.22285451
-0.009567183 0.018188609 0.035000745 0.11063771 -0.031780586 0.3420953 0.08456091 0.29757923
0.043115992 0.6552544 -0.054216802 0.53898984 0.022599028 0.44641632 0.09761571 0.3916191
-0.021502603 -0.30015436 -0.23991182 -0.23103271 0.033642493 -0.7222399 0.14775518 -0.81221896
-0.03482821 -0.5776741 0.04787595 -0.5837954 0.019403554 0.102014974 -0.009179332 0.19882312
-0.035604835 -0.12490778 -0.27501965 -0.10192703 0.0110979695 0.24053472 0.16722548 0.2760449
-0.034891434 -0.29779384 0.030794943 -0.32619295 -0.03926307 -0.14044155 0.06457621 -0.17547245
0.057423484 0.3254415 -0.0510697 0.31685603 0.015484009 0.081393704 0.012901848 0.027200667
-0.03122912 0.23448505 0.0055804416 0.25432432 0.025021171 -0.49312302 0.009597692 -0.4314242
-0.049886398 -0.27764887 0.0113324905 -0.27270043 0.02214371 -0.13474184 0.046675485 -0.06901875
-0.0076528327 0.27081525 -0.018560981 0.2885129 -0.0027907058 0.19943091 -0.07571343 0.17452581
-0.024729522 0.28398624 0.045252956 0.30794188 -0.042015746 -0.20266035 -0.16716753 -0.24693008
0.0583094 -0.14586185 -0.072067015 -0.10810964 0.031376436 0.10498914 -0.042088296 0.10175872
-0.023318458 -0.3188555 0.019549364 -0.34095967 0.027906848 0.22896458 0.081916735 0.2417538
-0.041647755 0.06035219 -0.038086545 0.086828835 0.029010963 -0.25382918 0.04595533 -0.22136097
-0.01232969 0.52074474 -0.14132373 0.4028087 0.0155293085 -0.34123087 0.21387857 -0.29543954
-0.02248562 0.21624488 0.17298818 0.18609618 -0.02036671 -0.016394462 -0.5541057 -0.075956985
0.058328055 -0.177659 -0.025863022 -0.1545274 0.00886141 0.099309094 0.014318486 0.10087119
00000000: eb56 cfbc df3c b9be e37e 2bbe 454f 3bbe
00000010: 716a d7bc 178b e63e b783 333e fa74 f53e
00000020: 69e5 2e3d 9efd 293e f2a4 89bc 4de0 113e
00000030: 17a2 cb3c c411 693e 358a c0ba 6c50 373e
00000040: be24 a1bc 7f5c e5bd 9591 9dbc 4485 d6bb
00000050: 8da7 ad3c dfc8 2fbe 7526 f6bd 1a8e 5bbe
00000060: 4eef 77bd 2a3c 65bd fc2c a8be ec87 30be
00000070: 1fe9 fd3c 1804 bdbe 0c38 5b3e 265d 9cbe
00000080: 0176 85bc 5d0e 873e 5162 3dbd 281f 2e3e
00000090: acbe a63b 68c4 5cbe 9172 3f3e efdc 54be
000000a0: 45a1 9abc 6ae2 debe 49f2 afbd 8d78 babe
000000b0: 3616 06bd fb84 d53d a7ee 73bd 40ea 1a3d
000000c0: 8d5a 3f3d 3b0c 58bc cb36 13bc 8ca1 81ba
000000d0: 627d 353d 592b e63e 4df0 0dbc 26d8 c63e
000000e0: 03c1 03bd 7722 c8bd 1777 cbbb f312 1ebd
000000f0: 3e89 383d 0df5 40bc c297 a23c 25d0 a2bd
00000100: 8cea 74bd 9345 1fbf a47e 2abd 0f89 1abf
00000110: cee8 bf3c 5a7c a93e 0608 50be 45aa 913e
00000120: 41ed 9abc 2f80 3d3e 1bb1 bb3d 661b c13d
00000130: 8cc6 5c3c 1878 ab3d b5d9 253e d743 663e
00000140: fb68 bfbc 1113 fa3e 8ee3 eb3c ea13 f53e
00000150: 28c6 e8bc 0847 eabc 8eb3 abbd 1173 413d
00000160: ebdc 483d c933 f53e 6c05 5dbd b4a5 d03e
00000170: 34df 183d 28ac b5be 4e3e c9bb c2ad a0be
00000180: f449 f3bc 1071 6ebd 91e7 443e fa85 c5bd
00000190: 2cb2 1e3d 48fe 5abe 3913 15bd fb21 4dbe
000001a0: 1a23 05bd 9173 d53d b589 9bbd ee4c ea3d
000001b0: eba6 073d 9f97 993b 081d 02be b020 5f3d
000001c0: 94d4 e7bc 1d1a 58be a71d a8bd 7cf6 3bbe
000001d0: 5a07 373c 1a5c 12be 7a57 4a3e f933 64be
000001e0: adbf 1cbc 4700 953c f15c 0f3d 0696 e23d
000001f0: 5c2c 02bd 1d27 af3e 452e ad3d 4e5c 983e
00000200: 659a 303d c1be 273f 7012 5ebd 3dfb 093f
00000210: 9921 b93c ae90 e43e bfea c73d 4c82 c83e
00000220: 3a26 b0bc d5ad 99be 72ab 75be d793 6cbe
00000230: b6cc 093d b7e4 38bf 224d 173e 95ed 4fbf
00000240: 06a8 0ebd 73e2 13bf 9219 443d 9e73 15bf
00000250: 34f4 9e3c 3aed d03d e964 16bc 4a98 4b3e
00000260: 60d6 11bd a6cf ffbd 60cf 8cbe 1ebf d0bd
00000270: 42d4 353c bc4e 763e 283d 2b3e c255 8d3e
00000280: 52ea 0ebd 6f78 98be ad45 fc3c c302 a7be
00000290: 50d2 20bd e9cf 0fbe 8840 843d 0daf 33be
000002a0: e334 6b3d 45a0 a63e 762e 51bd f43a a23e
000002b0: a4b0 7d3c beb1 a63d 4662 533c efd3 de3c
000002c0: 36d4 ffbc d91c 703e 23dc b63b cc36 823e
000002d0: 33f9 cc3c 9f7a fcbe a33f 1d3c a2e3 dcbe
000002e0: ae55 4cbd fe27 8ebe e9ab 393c 649f 8bbe
000002f0: ba66 b53c c4f9 09be cb2e 3f3d b459 8dbd
00000300: 9dc4 fabb 4ca8 8a3e 330d 98bc f6b7 933e
00000310: 46e4 36bb 9e37 4c3e a50f 9bbd e5b6 323e
00000320: 9195 cabc a566 913e 2a5b 393d 8faa 9d3e
00000330: b418 2cbd 3286 4fbe f72d 2bbe 3ddb 7cbe
00000340: d6d5 6e3d cf5c 15be df97 93bd 9668 ddbd
00000350: 9484 003d 8c04 d73d c764 2cbd e066 d03d
00000360: 5a06 bfbc 0741 a3be fd25 a03c 4492 aebe
00000370: e79c e43c b175 6a3e f6c3 a73d 4f8e 773e
00000380: d696 2abd dc33 773d a300 1cbd 51d3 b13d
00000390: 66a8 ed3c e6f5 81be a83b 3c3d 73ac 62be
000003a0: 7802 4abc 874f 053f 2bb7 10be f13c ce3e
000003b0: a46e 7e3c d0b5 aebe fc02 5b3e da43 97be
000003c0: c333 b8bc 4c6f 5d3e d023 313e ff8f 3e3e
000003d0: 16d8 a6bc ae4d 86bc dfd9 0dbf 568f 9bbd
000003e0: 66e9 6e3d 3eec 35be b0de d3bc 6e3c 1ebe
000003f0: 732f 113c 9162 cb3d 1598 6a3c 8e95 ce3d
