VietaPell_best_weights.pth (torch, 895506 bytes, 16 tensors)

trigkan1.phase_low f4 [784, 8]
0	0xc0019c7f	-2.0251768
1	0xbfd56c1d	-1.6673619
2	0xbfa67d99	-1.3007079
3	0xbf714763	-0.9424955
4	0xbf0e163d	-0.5550268
5	0xbe30c372	-0.17262056
6	0x3e48e0f2	0.1961706
7	0x3f1037d5	0.5633519
8	0xc001e56f	-2.0296285
9	0xbfdccc8b	-1.7249922
10	0xbfa970dd	-1.3237568
11	0xbf6dfb2f	-0.929614
12	0xbf07cfe7	-0.5305161
13	0xbe3f20d8	-0.18664873
14	0x3e3a27ba	0.18179217
15	0x3f0e583f	0.556034
16	0xc001afc9	-2.026354
17	0xbfd7b1fb	-1.685119
18	0xbfab4c6b	-1.3382696
19	0xbf725aa8	-0.9466958
20	0xbf0d02f3	-0.55082625
21	0xbe410a7a	-0.18851653
22	0x3e317072	0.1732805
23	0x3f0dc163	0.5537321
24	0xc0022fba	-2.034163
25	0xbfcd93ae	-1.6060693
26	0xbfadd6f5	-1.3581225
27	0xbf6ef968	-0.93349314
28	0xbf0cecbd	-0.55048734
29	0xbe3d7a4f	-0.18503688
30	0x3e383487	0.17988788
31	0x3f0e6954	0.5562947
32	0xc0020883	-2.0317695
33	0xbfd157e9	-1.6354953
34	0xbfab39b2	-1.3376982
35	0xbf6fbb3c	-0.9364507
36	0xbf07afb7	-0.53002495
37	0xbe538714	-0.20656997
38	0x3e3ab60c	0.18233508
39	0x3f0f90be	0.56080234
40	0xc001d48f	-2.0285985
41	0xbfd4f882	-1.6638339
42	0xbfaad6fd	-1.3346859
43	0xbf74ff15	-0.95701724
44	0xbf09b045	-0.5378459
45	0xbe43115f	-0.19049595
46	0x3e2859fe	0.1644058
47	0x3f08f6a8	0.5350137
48	0xc0021267	-2.0323732
49	0xbfca7884	-1.5818028
50	0xbfaabc6b	-1.3338751
51	0xbf6f0d81	-0.9337998
52	0xbf0deb70	-0.55437374
53	0xbe2b800a	-0.16748062
54	0x3e2f6f30	0.17132258
55	0x3f0e2a82	0.5553361
56	0xc001c51a	-2.0276551
57	0xbfd4c0cb	-1.6621336
58	0xbfa994b1	-1.3248502
59	0xbf704a84	-0.938637
60	0xbf0bc68f	-0.5459985
61	0xbe36ae60	-0.17839956
62	0x3e3d503e	0.18487641
63	0x3f0ec2c1	0.5576592
64	0xc00196e7	-2.0248353
65	0xbfd2fe07	-1.6483773
66	0xbfa945f6	-1.3224475
67	0xbf70d083	-0.94068164
68	0xbf09c6ae	-0.53818786
69	0xbe432536	-0.19057164
70	0x3e319a37	0.17343985
71	0x3f0b7469	0.544745
72	0xc001d8b5	-2.0288517
73	0xbfd1925c	-1.637279
74	0xbfaad807	-1.3347176
75	0xbf70342e	-0.9382962
76	0xbf0999f6	-0.5375055
77	0xbe520ddb	-0.20513098
78	0x3e3818a0	0.17978144
79	0x3f0e404b	0.55566853
80	0xc0017610	-2.022831
81	0xbfd022c0	-1.6260605
82	0xbfaa8b92	-1.3323843
83	0xbf757a77	-0.9588999
84	0xbf05bc9d	-0.52240926
85	0xbe4294d0	-0.1900208
86	0x3df13fcf	0.11779749
87	0x3f0f2c12	0.5592662
88	0xc0016d52	-2.0222974
89	0xbfd0e27f	-1.6319121
90	0xbfaa7256	-1.3316143
91	0xbf757bfc	-0.9589231
92	0xbf14a58b	-0.580651
93	0xbe5ba9b7	-0.2145146
94	0x3e30ebd9	0.17277469
95	0x3f0b08f8	0.5431056
96	0xc0016f8b	-2.022433
97	0xbfcdf52d	-1.6090447
98	0xbfa76d40	-1.3080215
99	0xbf6db5e7	-0.92855686
100	0xbf09a2c8	-0.5376401
101	0xbe38a865	-0.18032987
102	0x3e2bd751	0.16781355
103	0x3f0db65f	0.553564
104	0xc00137de	-2.0190349
105	0xbfd2771b	-1.6442598
106	0xbfa620ca	-1.2978756
107	0xbf795a29	-0.974032
108	0xbf0c4d90	-0.5480585
109	0xbe670455	-0.22560246
110	0x3ddb39c2	0.10704376
111	0x3f0ceab5	0.55045635
112	0xc0013c5c	-2.019309
113	0xbfd50751	-1.6642858
114	0xbfa23181	-1.2671357
115	0xbf77da13	-0.9681713
116	0xbf129891	-0.5726405
117	0xbe400f2e	-0.1875579
118	0x3e18108c	0.14850062
119	0x3efe853f	0.49711034
120	0xc0019cc6	-2.0251937
121	0xbfd259ab	-1.6433614
122	0xbfa9f463	-1.3277706
123	0xbf66ddad	-0.90182
124	0xbf0c125e	-0.54715526
125	0xbe69b147	-0.22821532
126	0x3e206eef	0.15667318
127	0x3f0a29e9	0.539702
128	0xc001b1dd	-2.026481
129	0xbfd97a29	-1.6990405
130	0xbfa7ee50	-1.3119602
131	0xbf731113	-0.9494793
132	0xbf100e7d	-0.5627211
133	0xbe2b34f5	-0.1671942
134	0x3e24d49b	0.16096728
135	0x3f110f45	0.56663924
136	0xc0016133	-2.0215576
137	0xbfcde427	-1.6085252
138	0xbfa8deb4	-1.3192964
139	0xbf6eb4c3	-0.9324457
140	0xbf15281c	-0.5826433
141	0xbe3b8b11	-0.18314768
142	0x3e2fd7e9	0.17172207
143	0x3f04ccb3	0.51874846
144	0xc001c0f3	-2.0274017
145	0xbfcff814	-1.6247582
146	0xbfa88fad	-1.3168846
147	0xbf6f51f9	-0.93484455
148	0xbf10e1ff	-0.5659484
149	0xbe34c2da	-0.17652455
150	0x3e05c3e6	0.1306301
151	0x3f120c0f	0.5704965
152	0xc001d83b	-2.0288227
153	0xbfd76a2c	-1.6829276
154	0xbfa7a8ab	-1.3098348
155	0xbf6f593e	-0.9349555
156	0xbf0c5319	-0.54814297
157	0xbe4e6372	-0.20155123
158	0x3e3dfcbd	0.18553443
159	0x3f153fcd	0.5830048
160	0xc001e192	-2.0293927
161	0xbfd284d0	-1.6446781
162	0xbfa8af90	-1.3178577
163	0xbf6f972b	-0.9359004
164	0xbf0715d5	-0.5276769
165	0xbe48da6b	-0.1961457
166	0x3e586382	0.21131709
167	0x3f091633	0.535495
168	0xc0021467	-2.0324953
169	0xbfce2f6a	-1.610822
170	0xbfabcff0	-1.3422832
171	0xbf6fbc1e	-0.9364642
172	0xbf0df9ab	-0.5545909
173	0xbe3d49ac	-0.18485135
174	0x3e2ac421	0.1667638
175	0x3f0c280a	0.54748595
176	0xc0019b64	-2.0251093
177	0xbfd197d4	-1.6374459
178	0xbfaaddad	-1.33489
179	0xbf729a5f	-0.947668
180	0xbf0f7bdd	-0.56048375
181	0xbe427e6f	-0.18993543
182	0x3e2a8298	0.1665138
183	0x3f091b94	0.53557706
184	0xc0019c83	-2.0251777
185	0xbfd8b5e2	-1.6930506
186	0xbfaa27bd	-1.3293377
187	0xbf735758	-0.9505515
188	0xbf0794b5	-0.52961284
189	0xbe385723	-0.1800199
190	0x3e20719d	0.1566834
191	0x3f0c6c76	0.54853
192	0xc0019360	-2.02462
193	0xbfd29feb	-1.6455053
194	0xbfa8dab8	-1.3191748
195	0xbf72583e	-0.94665897
196	0xbf0786b6	-0.5293993
197	0xbe551a85	-0.20810898
198	0x3e458d39	0.19292153
199	0x3f0e2ef5	0.555404
200	0xc0019c68	-2.0251713
201	0xbfd4bb1e	-1.6619604
202	0xbfaaa6d4	-1.3332162
203	0xbf77e1da	-0.96829
204	0xbf086958	-0.5328574
205	0xbe240e51	-0.16021086
206	0x3e2dab11	0.16959788
207	0x3f0e0064	0.55469346
208	0xc001e1a8	-2.029398
209	0xbfd48557	-1.6603192
210	0xbfab66e1	-1.3390771
211	0xbf6cc407	-0.92486614
212	0xbf0c9325	-0.54912025
213	0xbe457a54	-0.19284946
214	0x3e2a442d	0.1662757
215	0x3f0f3818	0.5594497
216	0xc0018d3d	-2.0242455
217	0xbfd4156e	-1.656904
218	0xbfa96789	-1.3234721
219	0xbf6d74d2	-0.9275638
220	0xbf0abd9e	-0.5419558
221	0xbe4402dc	-0.19141716
222	0x3e2d1518	0.16902578
223	0x3f0b0735	0.5430787
224	0xc001fc77	-2.0310342
225	0xbfd21d83	-1.6415256
226	0xbfac3ea8	-1.3456621
227	0xbf693b3a	-0.91106
228	0xbf0fc4e9	-0.56159836
229	0xbe390b63	-0.1807075
230	0x3e387055	0.18011601
231	0x3f0baa07	0.54556316
232	0xc001ef15	-2.0302174
233	0xbfd70552	-1.6798499
234	0xbfa56710	-1.2922077
235	0xbf6c90e9	-0.92408615
236	0xbf0c7dce	-0.5487946
237	0xbe38bd01	-0.1804085
238	0x3e3d18e5	0.18466528
239	0x3f115b82	0.56780255
240	0xc001b1b1	-2.0264704
241	0xbfd242df	-1.6426657
242	0xbfa7ba30	-1.3103695
243	0xbf717adb	-0.9432809
244	0xbf0fc897	-0.5616545
245	0xbe54c9f5	-0.20780165
246	0x3e4b307d	0.19842716
247	0x3f0c1a21	0.5472737
248	0xc001d339	-2.028517
249	0xbfcd10e3	-1.6020778
250	0xbfaa065c	-1.3283191
251	0xbf6f4c7f	-0.934761
252	0xbf0efcf8	-0.5585475
253	0xbe421a14	-0.1895526
254	0x3e3639a5	0.17795427
255	0x3f0fd40c	0.5618293

trigkan1.phase_height f4 [784, 8]
0	0xbf0d4eb1	-0.551982
1	0xbe28f856	-0.16500983
2	0x3e4571ed	0.1928174
3	0x3f171b36	0.59025896
4	0x3f6da7cd	0.9283417
5	0x3fa5b8cf	1.2947024
6	0x3fd2d56d	1.6471382
7	0x40009f53	2.0097244
8	0xbf0c76b4	-0.54868627
9	0xbdd82f5a	-0.105559066
10	0x3e59a07d	0.21252628
11	0x3f0ef974	0.55849385
12	0x3f6a7f61	0.91600615
13	0x3fa4da5c	1.2879138
14	0x3fd444e6	1.6583526
15	0x4000f3a8	2.0148716
16	0xbf0be9bc	-0.54653525
17	0xbe1a9e2c	-0.150994
18	0x3e679f45	0.2261935
19	0x3f152497	0.58258957
20	0x3f667bee	0.9003285
21	0x3fa470cd	1.2846924
22	0x3fd48111	1.6601888
23	0x40010b22	2.0163045
24	0xbf0a1846	-0.5394329
25	0xbe3fd5b9	-0.18733872
26	0x3e6e9eac	0.23302716
27	0x3f0c0924	0.5470145
28	0x3f6759d6	0.90371454
29	0x3fa579a4	1.2927747
30	0x3fd3a7e3	1.653561
31	0x3fffc452	1.9981787
32	0xbf0b564c	-0.54428554
33	0xbe639669	-0.22225346
34	0x3e6b5c0c	0.22984332
35	0x3f1372dc	0.57597136
36	0x3f652e57	0.89523834
37	0x3fa6c1d2	1.3027899
38	0x3fd53a17	1.6658353
39	0x3ffff618	1.9996977
40	0xbf0c0f8a	-0.5471121
41	0xbe263a3e	-0.16233155
42	0x3e622a59	0.22086467
43	0x3f10559c	0.5638063
44	0x3f697885	0.91199523
45	0x3fa4033d	1.2813488
46	0x3fd6e678	1.6789083
47	0x400156ee	2.0209308
48	0xbf0c3fac	-0.54784656
49	0xbe76d11b	-0.24103205
50	0x3e669203	0.22516637
51	0x3f10d789	0.5657888
52	0x3f6ac77e	0.9171065
53	0x3fa2b068	1.2710085
54	0x3fd62dd6	1.6732738
55	0x4000f2aa	2.014811
56	0xbf0d78ef	-0.55262655
57	0xbe3b5d06	-0.18297204
58	0x3e6a9c5d	0.2291121
59	0x3f11362e	0.56723297
60	0x3f6d2bf2	0.9264518
61	0x3fa2ed72	1.2728713
62	0x3fd36f6c	1.6518378
63	0x40003c49	2.0036795
64	0xbf0dd81f	-0.554079
65	0xbe47cdd3	-0.1951211
66	0x3e6af037	0.22943197
67	0x3f13e5ac	0.57772326
68	0x3f638fd6	0.8889135
69	0x3fa7daff	1.3113707
70	0x3fd56fad	1.6674706
71	0x4001f0f1	2.030331
72	0xbf0d8701	-0.55284125
73	0xbe6890d8	-0.22711504
74	0x3e61d850	0.22055173
75	0x3f16911c	0.5881517
76	0x3f66fc35	0.9022859
77	0x3fa4bbdb	1.2869829
78	0x3fd4da68	1.6629152
79	0x4000b53b	2.0110614
80	0xbf0d22d6	-0.5513128
81	0xbe628198	-0.22119749
82	0x3e69f815	0.22848542
83	0x3f192a6a	0.59830344
84	0x3f6302c2	0.88676083
85	0x3fa57e20	1.2929115
86	0x3fe16014	1.7607446
87	0x4001e2f6	2.0294776
88	0xbf0dacfc	-0.5534208
89	0xbe5946b9	-0.21218385
90	0x3e5d44eb	0.21608321
91	0x3f178a64	0.5919554
92	0x3f6ea710	0.9322367
93	0x3fa6bcd7	1.3026379
94	0x3fd3bde5	1.6542326
95	0x4001ef4a	2.03023
96	0xbf0cf79c	-0.5506532
97	0xbe61e84e	-0.22061273
98	0x3e545e7c	0.20739168
99	0x3f160ca1	0.5861302
100	0x3f686ed1	0.9079409
101	0x3fa53578	1.2906942
102	0x3fd3ba7e	1.6541288
103	0x40023220	2.0343094
104	0xbf0e6846	-0.5562786
105	0xbe513bcf	-0.20432971
106	0x3e48ca99	0.19608535
107	0x3f18dd38	0.59712553
108	0x3f6dc33d	0.92876035
109	0x3faae61e	1.3351476
110	0x3fdba4b1	1.7159635
111	0x4000d1f4	2.0128145
112	0xbf0dcc53	-0.553899
113	0xbe304dd9	-0.17217197
114	0x3e3241d3	0.17407922
115	0x3f19e085	0.60108215
116	0x3f6e7fb0	0.93163586
117	0x3fa6e0e5	1.3037382
118	0x3fdaa20e	1.7080705
119	0x4004290a	2.0650048
120	0xbf0ecf9b	-0.5578553
121	0xbe23106c	-0.15924233
122	0x3e5f95f2	0.21834543
123	0x3f056511	0.5210734
124	0x3f6d16a3	0.92612666
125	0x3fa50444	1.2891927
126	0x3fd440b8	1.658225
127	0x40026d5e	2.0379252
128	0xbf0d0f28	-0.5510125
129	0xbe18348c	-0.14863795
130	0x3e5a0429	0.2129065
131	0x3f1a12a5	0.601847
132	0x3f6f26b0	0.9341841
133	0x3fa221fc	1.2666621
134	0x3fd36054	1.6513772
135	0x4001a25c	2.0255346
136	0xbf0cd3ba	-0.5501057
137	0xbe6bd90b	-0.23032014
138	0x3e5a29db	0.21305029
139	0x3f139bd6	0.5765966
140	0x3f689483	0.9085161
141	0x3fa5d305	1.2955023
142	0x3fd44e0b	1.6586317
143	0x4003aadd	2.0573037
144	0xbf0c1833	-0.54724425
145	0xbe6b533e	-0.22980973
146	0x3e575d9a	0.210318
147	0x3f163da3	0.586878
148	0x3f6fa77a	0.93614924
149	0x3fa4552e	1.2838495
150	0x3fda9d6f	1.7079295
151	0x3ffed879	1.9909812
152	0xbf0bf1be	-0.54665744
153	0xbe102c90	-0.14079499
154	0x3e51a005	0.20471199
155	0x3f0d626e	0.55228317
156	0x3f6bcd3a	0.92110026
157	0x3fa4a93c	1.2864146
158	0x3fd5d800	1.6706543
159	0x4000d5e4	2.0130548
160	0xbf0c7316	-0.5486311
161	0xbe6391ba	-0.22223559
162	0x3e5fbee9	0.2185017
163	0x3f129a48	0.57266665
164	0x3f63b84f	0.8895311
165	0x3fa5a312	1.294039
166	0x3fd14b35	1.6351076
167	0x4002316d	2.0342667
168	0xbf0b4161	-0.54396635
169	0xbe529e76	-0.2056826
170	0x3e6d3e7f	0.23168372
171	0x3f0d6d38	0.5524478
172	0x3f6b789a	0.919809
173	0x3fa4e912	1.2883627
174	0x3fd3acc1	1.6537095
175	0x4001689e	2.0220103
176	0xbf0cf2fa	-0.5505825
177	0xbe60c2be	-0.21949288
178	0x3e74b504	0.23897177
179	0x3f174da0	0.5910282
180	0x3f68e0ea	0.9096819
181	0x3fa61bf4	1.2977281
182	0x3fd4da5f	1.6629142
183	0x40022f19	2.0341246
184	0xbf0bd076	-0.5461496
185	0xbe07db02	-0.13267139
186	0x3e7625de	0.24037883
187	0x3f0ee0bf	0.55811685
188	0x3f66d4be	0.9016837
189	0x3fa590df	1.2934836
190	0x3fd42bc6	1.6575859
191	0x400074c6	2.0071273
192	0xbf0b43c4	-0.5440028
193	0xbe47848b	-0.19484155
194	0x3e688e30	0.2271049
195	0x3f0badaa	0.54561865
196	0x3f68c0ce	0.90919197
197	0x3fa5d37b	1.2955164
198	0x3fcfed98	1.6244383
199	0x400167fa	2.0219712
200	0xbf0c81a8	-0.5488534
201	0xbe6455d6	-0.22298369
202	0x3e5eb300	0.2174797
203	0x3f145205	0.5793765
204	0x3f6a164a	0.9144026
205	0x3fa36b47	1.2767113
206	0x3fd4bca7	1.6620072
207	0x4000b057	2.010763
208	0xbf0c4e79	-0.5480724
209	0xbe2ecde7	-0.17070733
210	0x3e66ea96	0.22550425
211	0x3f0b95fd	0.5452574
212	0x3f6a563a	0.9153782
213	0x3fa748c8	1.3069086
214	0x3fd55da5	1.6669203
215	0x400114e4	2.0169
216	0xbf0ca2eb	-0.54936093
217	0xbe49d3f6	-0.19709763
218	0x3e61263d	0.21987243
219	0x3f0b477e	0.54405963
220	0x3f6c69cf	0.9234895
221	0x3fa62f88	1.2983255
222	0x3fd6c94b	1.678018
223	0x4002423f	2.0352933
224	0xbf0b39f8	-0.5438533
225	0xbe2fb9c7	-0.17160712
226	0x3e653ee5	0.22387274
227	0x3f0dd852	0.55408204
228	0x3f69a193	0.9126217
229	0x3fa3b28a	1.2788861
230	0x3fd20d18	1.6410246
231	0x4001ace0	2.0261765
232	0xbf0da58b	-0.55330724
233	0xbe2d39ed	-0.16916628
234	0x3e50e58a	0.20400062
235	0x3f0eed27	0.55830616
236	0x3f6ace90	0.9172144
237	0x3fa60659	1.2970687
238	0x3fd2b815	1.6462427
239	0x4001dda4	2.0291529
240	0xbf0d3ea1	-0.5517369
241	0xbe566c01	-0.20939638
242	0x3e4d8f71	0.2007425
243	0x3f11314b	0.5671584
244	0x3f6cfebf	0.9257621
245	0x3fa513fb	1.2896723
246	0x3fd29998	1.6453123
247	0x400135b4	2.0189028
248	0xbf0b4335	-0.54399425
249	0xbe72d664	-0.23714596
250	0x3e743a49	0.23850359
251	0x3f0d4d1f	0.551958
252	0x3f707365	0.9392608
253	0x3fa3c145	1.2793356
254	0x3fd24fbb	1.6430582
255	0x4000a2eb	2.0099437

trigkan1.equal_size_conv.weight f4 [32, 1, 8, 784]
0	0xbc748adf	-0.014925688
1	0x3ae46a18	0.0017426638
2	0xbd064295	-0.03277834
3	0xbd4451da	-0.047929622
4	0xbc8d39ef	-0.017239539
5	0xbbe46ab2	-0.006970727
6	0xbaaa46d6	-0.0012991081
7	0x3c8234c6	0.015894305
8	0xba51f9f1	-0.00080099615
9	0xbd64db20	-0.055873036
10	0xbcde6abf	-0.02715051
11	0xbc529a45	-0.012854164
12	0x3b8f7a1d	0.0043785707
13	0xbba7c355	-0.005119721
14	0x3c5c3c91	0.0134421745
15	0x3cbc6c95	0.023000995
16	0x3c0605cb	0.008180092
17	0xbb3be207	-0.0028668658
18	0xbd662cf0	-0.0561952
19	0xbbff624a	-0.0077936994
20	0x3c90f6f4	0.017695881
21	0xbb96dae4	-0.0046037305
22	0x3aaaff39	0.0013046033
23	0xbcd08df1	-0.025458308
24	0x3c4692fc	0.012120005
25	0x3d3ddc7c	0.04635285
26	0xbde1f60f	-0.1103326
27	0x3cadc066	0.021209907
28	0x3c56570a	0.013082275
29	0xbbed384a	-0.007239376
30	0x3cf68b8b	0.030095836
31	0xbc3624b7	-0.011117152
32	0xbba91f8e	-0.0051612323
33	0x3d462296	0.048372827
34	0xbdda7b38	-0.10668033
35	0xbd5d06bb	-0.053961497
36	0xbccfe9a8	-0.02537997
37	0xbcc21e88	-0.023696199
38	0x3d1e841a	0.0387002
39	0xba579bdf	-0.0008224826
40	0xb8637246	-5.4227443e-05
41	0xbc8f3dd1	-0.017485531
42	0xbd5063d9	-0.050876472
43	0xbce6beb4	-0.028167106
44	0xbc84cc6c	-0.016210757
45	0x3c7e8f4a	0.015537092
46	0x3c23871e	0.009980945
47	0x3d173bbb	0.036922198
48	0xbb803ff4	-0.003913874
49	0x3cce0cf6	0.025152665
50	0xbe089daa	-0.13341394
51	0x3bc608ff	0.006043553
52	0xbc572757	-0.013131938
53	0x3cc10dff	0.023566244
54	0xbc9255fc	-0.017863266
55	0xbc78053c	-0.015137967
56	0xbab0995d	-0.001347344
57	0x3b9fdd6d	0.004878691
58	0xbd600f69	-0.054702196
59	0xbd9db0d3	-0.07699742
60	0xbd18d994	-0.037316874
61	0x3c3936c8	0.011304565
62	0x3c3f6462	0.011681648
63	0x3c2254e8	0.009907939
64	0x3bb51127	0.0055257264
65	0xbcc53337	-0.024072273
66	0xbd19022c	-0.037355587
67	0xbda6f2de	-0.08151792
68	0x3ba0c63e	0.004906445
69	0x3c19c39d	0.009385017
70	0xbd107fea	-0.03527824
71	0xbca33260	-0.019921482
72	0x3bd6a08b	0.0065499
73	0x3d688528	0.056767613
74	0xbd38169f	-0.04494345
75	0xbdf4aefd	-0.11947439
76	0xbbc3ed35	-0.005979205
77	0x3c59e9bf	0.013300358
78	0xbc7e911b	-0.0155375255
79	0xbc527019	-0.012844109
80	0xbb1aceeb	-0.0023621868
81	0xbc95ebda	-0.01830094
82	0xbd68c261	-0.056826
83	0xbd8720bc	-0.065980405
84	0x3c1521d5	0.0091023045
85	0x3c30d8be	0.010793863
86	0xbd8f9a44	-0.07011846
87	0xbca4d0b0	-0.020119041
88	0xbbcf2d83	-0.006322564
89	0x3c5d8c75	0.013522257
90	0xbdb29c04	-0.08721164
91	0xbd39bcfa	-0.045346238
92	0xbab5f993	-0.0013883583
93	0xbd15979b	-0.036521535
94	0x3d1b506d	0.037918497
95	0xbc6e06c7	-0.014527983
96	0xbb962c4f	-0.0045829187
97	0x3d1b6997	0.037942495
98	0xbd0f18cc	-0.034935758
99	0xbd4814cc	-0.04884796
100	0xbd0e1a19	-0.034692857
101	0xbbd48d49	-0.006486569
102	0x3ca37f94	0.019958295
103	0xbd648965	-0.055795092
104	0xbae40de3	-0.0017399158
105	0xbc9c0c2f	-0.019048778
106	0xbd6688e9	-0.05628291
107	0xbd7688f0	-0.060189188
108	0xbce97452	-0.028497849
109	0xbbbbba50	-0.0057289973
110	0x3c91f7a7	0.017818285
111	0xbbfe9500	-0.007769227
112	0x3c3d3f07	0.011550671
113	0xbbded267	-0.0067999843
114	0x3cf68890	0.030094415
115	0xbe081531	-0.13289334
116	0x3cdc502d	0.0268937
117	0x3c80480e	0.015659358
118	0x3cb75e97	0.022383971
119	0xbbceeeae	-0.006315074
120	0xbbcecf49	-0.0063113314
121	0x3c4b876d	0.012422425
122	0xbe328b5d	-0.17435975
123	0x3d5cfda1	0.053952817
124	0x3c1e3018	0.009655021
125	0xbd778a84	-0.060434833
126	0xbd4bf37e	-0.04979276
127	0x39d448fe	0.00040490174
128	0xbb3a8929	-0.0028463101
129	0xbba67dcd	-0.0050809146
130	0xbd87d349	-0.06632096
131	0x3a44e2ec	0.00075106206
132	0xbcac19b4	-0.02100835
133	0x3a1e098e	0.00060286454
134	0x3b570a51	0.0032812546
135	0xbafe65e6	-0.001940903
136	0x3b9ab9e0	0.004721865
137	0x3d48687c	0.04892777
138	0xbdec67b2	-0.11543216
139	0xbd16fe10	-0.036863387
140	0xbacc19c9	-0.001557165
141	0xbd4f194e	-0.05056124
142	0x3c1bcc88	0.009509213
143	0xbd530b66	-0.051524542
144	0x3c36437a	0.011124486
145	0x3d148739	0.03626177
146	0xbd1e7de1	-0.038694266
147	0xbd285b19	-0.041102502
148	0xbce2e464	-0.027696796
149	0xbd10896f	-0.035287317
150	0xbc7b699d	-0.015345004
151	0xbc1919f6	-0.0093445685
152	0x3bf97a2e	0.007613442
153	0xbd3a809c	-0.045532808
154	0xbe05d8ac	-0.13070935
155	0xbcf63351	-0.030053766
156	0xbbe36cf9	-0.006940481
157	0x3d35e37b	0.044406395
158	0xbc8458a3	-0.016155547
159	0x3c0c88d0	0.0085775405
160	0x3a45d795	0.0007547078
161	0x3c99c31b	0.018769791
162	0xbdf02a68	-0.11726838
163	0xbd80377d	-0.062605835
164	0xbc6a23eb	-0.01429079
165	0xbc941185	-0.01807476
166	0xbb82877c	-0.003983436
167	0x3d4227f7	0.047401395
168	0x3b2fcb63	0.0026824109
169	0x3cd6c368	0.026216224
170	0xbe098f53	-0.1343358
171	0x3c08cde2	0.008349868
172	0xbd18b573	-0.03728242
173	0xbc47e7db	-0.012201275
174	0x3cb92650	0.022601277
175	0x3cb0abbd	0.021566266
176	0xba933cd1	-0.0011233335
177	0x3d304e1d	0.043043245
178	0xbda5d851	-0.080979
179	0xbd94b9b6	-0.07261984
180	0x3aa13a9d	0.0012300793
181	0xbc30a0c8	-0.010780521
182	0xbc899dff	-0.016798971
183	0x3d2a5c21	0.041591767
184	0x3b7aca11	0.0038267414
185	0xbd35d121	-0.044388894
186	0xbd6830c5	-0.056687135
187	0xbd7bb648	-0.061453134
188	0xbcd78d65	-0.02631254
189	0xbbc53b80	-0.006019056
190	0xbc9fd541	-0.019510867
191	0x3b0cb930	0.0021472685
192	0x3c069a7c	0.008215543
193	0x3d3783af	0.044803318
194	0xbe129af2	-0.1431692
195	0xbcb472c8	-0.022027388
196	0xbbc6e73c	-0.0060700458
197	0xbc93521f	-0.017983494
198	0xbc2ed040	-0.010669768
199	0x3ba619c0	0.0050689876
200	0xbb8fb832	-0.0043859715
201	0x3d09db31	0.033656303
202	0xbb9fb76e	-0.0048741614
203	0xbd6dc0d9	-0.058045242
204	0x3bfd6a17	0.007733594
205	0x3ca86de3	0.02056021
206	0xb9e74027	-0.0004410755
207	0x3cc353ed	0.02384373
208	0x3c28c1fc	0.010300156
209	0x3d9214e7	0.07132893
210	0xbe14799e	-0.14499518
211	0x3d0e9e50	0.034818947
212	0xbb843232	-0.004034304
213	0x3c15da8a	0.009146342
214	0xbbb6f9ff	-0.005584001
215	0xbc84ae3f	-0.016196368
216	0x3b8dee94	0.0043314192
217	0x3bdfdb1d	0.0068315403
218	0xbd314fb2	-0.043288894
219	0xbc8af730	-0.016963571
220	0x3c112f8c	0.008861434
221	0x3c749627	0.014928377
222	0x3cc620fd	0.024185652
223	0x3cb943ad	0.022615278
224	0xbc17a7a9	-0.009256282
225	0x3d52fecd	0.05151253
226	0xbdb48772	-0.08814897
227	0xbc1a7085	-0.009426241
228	0x3af2bfa2	0.0018520246
229	0x3afb2c5b	0.0019162999
230	0xbc6eac35	-0.014567425
231	0xbc939e2f	-0.018019764
232	0x3bb59e32	0.00554254
233	0x3c6e648e	0.014550341
234	0xbcc10d3c	-0.023565881
235	0xbccbbff3	-0.024871802
236	0x3c65958a	0.014012704
237	0xbc86f6ae	-0.016475048
238	0xba8c2a31	-0.0010693726
239	0x3cb15bd9	0.021650242
240	0x3bf39d7e	0.007434546
241	0x3c90067e	0.01758122
242	0xbccf1d45	-0.025282511
243	0xbcaacc5d	-0.020849401
244	0x3bffb65e	0.0078037223
245	0xbceb2fc8	-0.028709307
246	0x3a80ea59	0.0009835466
247	0x3c93a3ab	0.018022379
248	0xbac37f22	-0.0014915208
249	0x3d301956	0.042992912
250	0xbd8bb7f1	-0.068221934
251	0x3cd85f47	0.02641262
252	0x3aa0fcf2	0.0012282415
253	0xbc2e903a	-0.0106545035
254	0xbc02c9ad	-0.007982654
255	0xbb6f09ff	-0.0036474464

trigkan1.equal_size_conv.bias f4 [32]
0	0xbdd1fcc6	-0.10253291
1	0xbde22628	-0.11042434
2	0xbd10ab40	-0.035319567
3	0x3c8437ae	0.016139831
4	0x3c21444e	0.009842945
5	0xbbc13cb9	-0.0058971313
6	0x3d258e52	0.04041893
7	0xbd3791ef	-0.044816907
8	0x3d82ce5c	0.06387016
9	0x3d11a508	0.035557777
10	0xbcf38d27	-0.029730393
11	0xbdbd36d2	-0.09238972
12	0x3d99fc52	0.075188294
13	0xbd495c0b	-0.049160045
14	0xbd2c7616	-0.042104803
15	0xbb11902c	-0.0022211177
16	0x3d1461b4	0.03622599
17	0xbacfbd0d	-0.0015849188
18	0xbcb72fda	-0.022361685
19	0x3d4f59ab	0.050622623
20	0x3d464998	0.04841003
21	0xbc248ae7	-0.0100428825
22	0x3d8e5b55	0.06951014
23	0xbb9596e9	-0.004565109
24	0x3d1dff34	0.03857346
25	0xbd323c0b	-0.043514293
26	0xbc748c8f	-0.01492609
27	0xbca5b199	-0.020226287
28	0x3c8e926e	0.017403807
29	0xbc54c9d1	-0.01298757
30	0x3d0f5502	0.03499318
31	0xba180aeb	-0.0005799967

bn1.weight f4 [32]
0	0x3f4be603	0.79647845
1	0x3f69e158	0.9135947
2	0x3f4fcf06	0.8117527
3	0x3f582cfd	0.84443647
4	0x3f6580e5	0.896498
5	0x3f4d10c4	0.8010371
6	0x3f689966	0.9085907
7	0x3f65b9e2	0.8973676
8	0x3f6f32a9	0.93436676
9	0x3f5b233e	0.8560065
10	0x3f6e070b	0.92979497
11	0x3f567c94	0.8378384
12	0x3f5767eb	0.8414294
13	0x3f57251e	0.8404101
14	0x3f667ff7	0.9003901
15	0x3f497168	0.7868867
16	0x3f6c2857	0.92249054
17	0x3f6a68e2	0.9156629
18	0x3f3c4046	0.73535573
19	0x3f570510	0.839921
20	0x3f807bf6	1.003783
21	0x3f68d6c2	0.90952694
22	0x3f67e4d6	0.9058355
23	0x3f5e923b	0.8694188
24	0x3f6524e2	0.89509404
25	0x3f57fa07	0.84365886
26	0x3f559171	0.8342505
27	0x3f68e9b0	0.9098158
28	0x3f55f566	0.83577573
29	0x3f656ca1	0.8961888
30	0x3f63d0b7	0.8899035
31	0x3f464be8	0.77459574

bn1.bias f4 [32]
0	0x3d9877be	0.07444714
1	0xbbcc81a1	-0.006241039
2	0xbc9a2301	-0.01881552
3	0xbca2ec50	-0.019888073
4	0xbd3922d8	-0.045199245
5	0xbc9d2083	-0.019180542
6	0x3c6e73ec	0.014554005
7	0xbcff6b07	-0.031178964
8	0x3aa374f1	0.0012470764
9	0xbc1659f2	-0.009176718
10	0xbc13d89d	-0.009023813
11	0x3d106780	0.035254955
12	0xbd151a4a	-0.036402024
13	0xbc2fa701	-0.010720969
14	0xbc80130d	-0.015634084
15	0xbd7940f9	-0.06085298
16	0x3cf83aef	0.03030154
17	0xbbefa198	-0.0073129646
18	0xbccb1be7	-0.024793578
19	0xbcf46d60	-0.02983731
20	0x3d1d8a73	0.038462114
21	0xbcab9140	-0.020943284
22	0x3c60d0e6	0.01372168
23	0xbc7e947b	-0.01553833
24	0xbbf393a0	-0.0074333698
25	0xbd65b3f2	-0.056079812
26	0xbbfb3298	-0.0076659434
27	0xbc8431c7	-0.016137017
28	0x3bb74dc4	0.005593987
29	0xbcf74621	-0.030184807
30	0xbc554811	-0.01301767
31	0xbd00b7af	-0.031425174

trigkan2.phase_low f4 [32, 8]
0	0xc006a8b0	-2.1040459
1	0xbfd98f8e	-1.6996934
2	0xbfa33f37	-1.2753667
3	0xbf640518	-0.8907027
4	0xbf09cea1	-0.53830916
5	0xbe2dc051	-0.16967894
6	0x3e42b2d6	0.19013533
7	0x3f11edb8	0.57003355
8	0xc001c4e5	-2.0276425
9	0xbfe0fea8	-1.7577715
10	0xbfa9f6d4	-1.3278451
11	0xbf6b3c30	-0.91888714
12	0xbf10a15d	-0.5649622
13	0xbe4242d1	-0.18970801
14	0x3e32ec4c	0.17472953
15	0x3f0b3513	0.5437786
16	0xbffe9c75	-1.9891497
17	0xbfdc5ce5	-1.7215849
18	0xbfa06281	-1.2530061
19	0xbf73892d	-0.9513119
20	0xbf144d03	-0.5793001
21	0xbe84ed25	-0.25962177
22	0x3e2f9afb	0.17148964
23	0x3f11dd65	0.56978446
24	0xc0016a04	-2.0220957
25	0xbfd24dd8	-1.6430006
26	0xbfa2cff2	-1.271971
27	0xbf7a594a	-0.97792494
28	0xbf137c7a	-0.5761181
29	0xbe3d1331	-0.18464352
30	0x3e2c56e2	0.16830018
31	0x3edf5fba	0.4362772
32	0xc001624f	-2.0216253
33	0xbfd9f665	-1.7028319
34	0xbfa9678a	-1.3234723
35	0xbf622b6c	-0.88347507
36	0xbf1a0696	-0.601663
37	0xbe314d5b	-0.17314665
38	0x3e390e3b	0.18071835
39	0x3f12cf96	0.57348
40	0xc001618c	-2.0215788
41	0xbfd15b47	-1.6355981
42	0xbfacafd4	-1.3491158
43	0xbf768fad	-0.9631298
44	0xbf17e816	-0.5933851
45	0xbe60ae70	-0.21941543
46	0x3e3bdd36	0.18346104
47	0x3f0e2a95	0.55533725
48	0xc00195bf	-2.0247648
49	0xbfd05f06	-1.6278999
50	0xbfa919aa	-1.3210957
51	0xbf5a6fbf	-0.8532676
52	0xbf1bcc72	-0.60858834
53	0xbe5e93ff	-0.21736144
54	0x3e24af8e	0.16082594
55	0x3efff79e	0.49993604
56	0xc00805d8	-2.1253567
57	0xbfd0aa0b	-1.6301893
58	0xbfa5d5be	-1.2955854
59	0xbf77f737	-0.96861595
60	0xbf153a86	-0.58292425
61	0xbe3f39a1	-0.18674327
62	0x3e4f2ddb	0.20232336
63	0x3f1506bc	0.582134
64	0xc001c9c7	-2.0279405
65	0xbfda5956	-1.7058513
66	0xbfa65f2c	-1.2997794
67	0xbf6bd88e	-0.9212731
68	0xbf0c568c	-0.5481956
69	0xbe64cbdd	-0.22343393
70	0x3e1fa588	0.15590489
71	0x3ef8cd1e	0.48593992
72	0xc000c698	-2.0121212
73	0xbfd5da12	-1.6707175
74	0xbfa417ea	-1.2819798
75	0xbf690815	-0.9102796
76	0xbf225a66	-0.6341919
77	0xbe390a65	-0.18070371
78	0x3e16b882	0.14718822
79	0x3f1009e4	0.5626509
80	0xc002f698	-2.046301
81	0xbfda7728	-1.7067614
82	0xbfa14dd0	-1.2601871
83	0xbf6fe7a6	-0.9371284
84	0xbf26d5c6	-0.6516994
85	0xbe585805	-0.21127327
86	0x3e332cd8	0.17497575
87	0x3f137a5b	0.57608575
88	0xc001a66f	-2.0257833
89	0xbfda3708	-1.7048044
90	0xbfb19600	-1.3873901
91	0xbf6ef03e	-0.9333533
92	0xbf125b01	-0.5717011
93	0xbe461101	-0.19342424
94	0x3e51d499	0.20491256
95	0x3f12189f	0.5706882
96	0xc0017de0	-2.0233078
97	0xbfd7725c	-1.6831775
98	0xbfa4840a	-1.2852795
99	0xbf68f196	-0.9099363
100	0xbf0f0b57	-0.5587668
101	0xbe790eab	-0.24322002
102	0x3e1cb511	0.15303446
103	0x3f0bec83	0.54657763
104	0xc0088528	-2.1331272
105	0xbfcfebdc	-1.6243854
106	0xbfa4ca44	-1.2874227
107	0xbf841f8d	-1.0322129
108	0xbf0ebe1c	-0.55758834
109	0xbe43f292	-0.19135502
110	0x3e365ca5	0.17808779
111	0x3f12a894	0.5728848
112	0xc0016788	-2.021944
113	0xbfdb4c2e	-1.7132623
114	0xbfa7a6b3	-1.3097748
115	0xbf754f76	-0.9582437
116	0xbf13c173	-0.57717055
117	0xbe4d8661	-0.20070793
118	0x3e1089eb	0.14115112
119	0x3f066d5d	0.52510625
120	0xc002a380	-2.0412292
121	0xbfd3ef33	-1.6557373
122	0xbfa55350	-1.291605
123	0xbf808c03	-1.0042728
124	0xbf03e837	-0.51526207
125	0xbe51774a	-0.20455661
126	0x3dfc806c	0.12329182
127	0x3ef2415c	0.4731549
128	0xc0044ab8	-2.0670605
129	0xbfd12289	-1.6338664
130	0xbfaad0f8	-1.3345022
131	0xbf70a8d9	-0.9400764
132	0xbf0cb123	-0.5495779
133	0xbe5bdf3a	-0.21471873
134	0x3d85459f	0.0650742
135	0x3f0f2259	0.55911785
136	0xbfff5dac	-1.9950461
137	0xbfdc9d04	-1.7235417
138	0xbfaec35f	-1.3653373
139	0xbf7264be	-0.9468497
140	0xbf092521	-0.5357228
141	0xbe3cb553	-0.18428545
142	0x3def2184	0.116763145
143	0x3eecb645	0.4623281
144	0xbffa17e7	-1.9538544
145	0xbfdbdd6a	-1.7176945
146	0xbfa52670	-1.2902355
147	0xbf784743	-0.96983737
148	0xbf0b1847	-0.5433392
149	0xbe6d7c0a	-0.23191848
150	0x3e3fc674	0.18728048
151	0x3f0eb581	0.55745703
152	0xbfff6dd9	-1.9955398
153	0xbfd4d48c	-1.6627364
154	0xbfa2f4bf	-1.273094
155	0xbf6a2374	-0.9146035
156	0xbf0b9490	-0.54523563
157	0xbe863934	-0.26215518
158	0x3e3cb837	0.18429647
159	0x3f069d1e	0.5258349
160	0xc000868c	-2.008212
161	0xbfd14911	-1.6350423
162	0xbfa800f6	-1.3125293
163	0xbf796057	-0.9741263
164	0xbf06bdb3	-0.5263321
165	0xbe75771b	-0.23971216
166	0x3e2300c9	0.15918268
167	0x3f06b50f	0.52620023
168	0xc0027080	-2.0381165
169	0xbfdf9765	-1.7468077
170	0xbfa78537	-1.3087529
171	0xbf6a7eb8	-0.9159961
172	0xbf16ebfe	-0.58953846
173	0xbe6d1ee8	-0.23156321
174	0x3d9ea4f8	0.07746309
175	0x3f1222b4	0.570842
176	0xc001479c	-2.0199957
177	0xbfd2d94e	-1.6472566
178	0xbfa3fdb7	-1.2811803
179	0xbf6fae3d	-0.9362524
180	0xbf19c0a1	-0.60059553
181	0xbe371281	-0.17878152
182	0x3df6a490	0.120431066
183	0x3f04fd31	0.5194884
184	0xc00759af	-2.1148489
185	0xbfd3fca9	-1.6561481
186	0xbfa357d4	-1.2761178
187	0xbf73a077	-0.95166725
188	0xbf239824	-0.63904023
189	0xbe634c9f	-0.22197197
190	0x3e3bbe88	0.183344
191	0x3f0ce592	0.55037796
192	0xc001b39b	-2.0265872
193	0xbfd6759c	-1.6754642
194	0xbfa6d101	-1.3032533
195	0xbf7ac969	-0.9796358
196	0xbf0c1fbe	-0.54735935
197	0xbe5fcff9	-0.21856679
198	0x3e3821d5	0.17981656
199	0x3f0115b9	0.5042377
200	0xc000729b	-2.006995
201	0xbfd649c5	-1.6741263
202	0xbfa3007c	-1.2734523
203	0xbf77c3b4	-0.96782994
204	0xbf15e60e	-0.5855416
205	0xbe2c9fb6	-0.168578
206	0x3e124a86	0.14286241
207	0x3eee00eb	0.46485075
208	0xc000108d	-2.0010102
209	0xbfe18c86	-1.7621009
210	0xbfa0f962	-1.2576106
211	0xbf75b342	-0.9597665
212	0xbf1b1fc4	-0.60595345
213	0xbe7ffd74	-0.24999028
214	0x3e3fa4ca	0.18715206
215	0x3f0955ba	0.53646433
216	0xc009118c	-2.141696
217	0xbfccfe32	-1.6015074
218	0xbfa309bb	-1.2737345
219	0xbf7827b6	-0.96935594
220	0xbf1a810f	-0.6035318
221	0xbe92887a	-0.28619748
222	0x3e424b9c	0.18974155
223	0x3f0707c5	0.5274623
224	0xc002169e	-2.0326304
225	0xbfd3a836	-1.6535709
226	0xbfabe62e	-1.342962
227	0xbf73a0ce	-0.95167243
228	0xbf1409c8	-0.57827425
229	0xbe6747fd	-0.22586055
230	0x3e3a3d39	0.18187417
231	0x3eeb3c2c	0.45944345
232	0xc0076f9c	-2.116187
233	0xbfd00596	-1.6251705
234	0xbfa95ca5	-1.3231398
235	0xbf7bb30f	-0.98320097
236	0xbf046735	-0.5171998
237	0xbe2d1d09	-0.16905607
238	0x3e4699f2	0.19394663
239	0x3f0353e2	0.5129987
240	0xc000f4eb	-2.0149486
241	0xbfd9b1aa	-1.7007344
242	0xbfa9eecd	-1.3276001
243	0xbf64ee16	-0.8942579
244	0xbf2018c1	-0.6253777
245	0xbe3783ef	-0.17921422
246	0x3e2ac0c1	0.16675092
247	0x3efbfac8	0.49214768
248	0xc0002fea	-2.0029244
249	0xbfd2960f	-1.6452044
250	0xbfab3ed9	-1.3378555
251	0xbf713cb4	-0.9423325
252	0xbf124ca6	-0.57148206
253	0xbe33a274	-0.1754244
254	0x3dcc8888	0.09986979
255	0x3f0df42e	0.55450714

trigkan2.phase_height f4 [32, 8]
0	0xbeff64a2	-0.49881464
1	0xbdef8853	-0.11695924
2	0x3e3c8279	0.18409146
3	0x3f042f8f	0.5163507
4	0x3f6780b7	0.9043078
5	0x3fa066d7	1.2531384
6	0x3fd0b4ca	1.6305172
7	0x4000ebe5	2.0143979
8	0xbf0319f1	-0.5121146
9	0xbe0046c3	-0.12526993
10	0x3e33f86c	0.17575234
11	0x3f0644f5	0.5244897
12	0x3f63b627	0.8894982
13	0x3fa0fa0c	1.2576308
14	0x3fd7e8f0	1.6867962
15	0x4001a13c	2.025466
16	0xbf1268f1	-0.5719138
17	0xbe036881	-0.12832834
18	0x3e30bfa3	0.17260604
19	0x3f059240	0.52176285
20	0x3f83ab63	1.0286678
21	0x3fab0664	1.3361325
22	0x3fd3e962	1.6555598
23	0x4001254c	2.0179014
24	0xbf0cc15e	-0.54982555
25	0xbe26ecc3	-0.16301255
26	0x3e2da745	0.1695834
27	0x3f1c7a91	0.6112452
28	0x3f6f4d7b	0.934776
29	0x3fa526cb	1.2902464
30	0x3fdce46c	1.7257209
31	0x4005e64c	2.0921812
32	0xbf0fe937	-0.5621523
33	0xbde2788b	-0.11058148
34	0x3e3830a0	0.17987299
35	0x3f15c203	0.58499163
36	0x3f685e70	0.907691
37	0x3fa54eef	1.2914714
38	0x3fd654d7	1.6744641
39	0x4002228e	2.033359
40	0xbf0e41cc	-0.5556915
41	0xbe2437b8	-0.1603688
42	0x3e906eeb	0.28209624
43	0x3f1a7c8b	0.6034629
44	0x3f710d05	0.9416049
45	0x3fa005f4	1.2501817
46	0x3fe04de9	1.7523776
47	0x4001a252	2.0255322
48	0xbf0cce59	-0.5500236
49	0xbe154b58	-0.14579523
50	0x3e571b56	0.21006522
51	0x3efae7e1	0.49005035
52	0x3f77e8fe	0.9683989
53	0x3fa9546d	1.322889
54	0x3fd987d3	1.6994575
55	0x400071fa	2.0069566
56	0xbf006889	-0.5015951
57	0xbe13cf96	-0.14434657
58	0x3e521f8e	0.2051985
59	0x3f1ebe76	0.6200937
60	0x3f6e1345	0.9299815
61	0x3fa68abf	1.3011092
62	0x3fd33bf0	1.6502666
63	0x4001c973	2.0279205
64	0xbf0c0e4e	-0.5470933
65	0xbe2198fe	-0.15781018
66	0x3e4be18e	0.19910261
67	0x3f0cdf7d	0.55028516
68	0x3f6f3dc9	0.9345365
69	0x3fad1f88	1.3525248
70	0x3fd81360	1.6880913
71	0x40004e66	2.004785
72	0xbf0c7b7f	-0.5487594
73	0xbe3e187f	-0.18564032
74	0x3e490aea	0.1963307
75	0x3f0ba130	0.5454283
76	0x3f802db6	1.001395
77	0x3fa330b6	1.274924
78	0x3fd31d1e	1.6493261
79	0x40051583	2.079438
80	0xbf017c05	-0.50579864
81	0xbe4f7604	-0.20259863
82	0x3e6b3ba6	0.22971973
83	0x3f1720cb	0.59034413
84	0x3f811778	1.0085287
85	0x3fa34815	1.2756373
86	0x3fd4c53d	1.6622692
87	0x40021144	2.0323038
88	0xbf0ea81e	-0.55725276
89	0xbe22460a	-0.1584703
90	0x3e92ae17	0.28648445
91	0x3f0fdfdb	0.5620095
92	0x3f7040e5	0.9384902
93	0x3fa68463	1.3009151
94	0x3fd74e8d	1.6820847
95	0x400261e5	2.037225
96	0xbf0b1f81	-0.54344946
97	0xbe3b38c0	-0.18283367
98	0x3e4821f9	0.1954421
99	0x3f122e7d	0.57102185
100	0x3f73f17f	0.9529037
101	0x3fad509f	1.3540229
102	0x3fd3c9a3	1.654591
103	0x40042e79	2.0653365
104	0xbf0f367d	-0.5594252
105	0xbdea492d	-0.114397384
106	0x3e5a1c97	0.21299969
107	0x3f14969b	0.58042306
108	0x3f6bcb4b	0.92107075
109	0x3fa5e0c7	1.2959222
110	0x3fd4fe63	1.6640133
111	0x4002f409	2.0461447
112	0xbf064d11	-0.52461344
113	0xbe37eeec	-0.17962235
114	0x3e6dc0c7	0.2321807
115	0x3f11ac38	0.5690341
116	0x3f6be64c	0.9214828
117	0x3fa3b5cb	1.2789854
118	0x3fd3fbae	1.6561182
119	0x40025e6f	2.0370138
120	0xbf09f824	-0.5389426
121	0xbe2d5cd0	-0.16929936
122	0x3e53fce8	0.20701945
123	0x3f2360a1	0.6381932
124	0x3f73b151	0.9519244
125	0x3fa53862	1.2907832
126	0x3fd80a67	1.6878175
127	0x4007afec	2.1201124
128	0xbf100ff2	-0.5627433
129	0xbe33cef9	-0.17559423
130	0x3e733da6	0.23753986
131	0x3f1a06a2	0.6016637
132	0x3f699ca9	0.9125467
133	0x3fa84211	1.3145162
134	0x3fd9e319	1.702243
135	0x3fffc4b4	1.9981904
136	0xbf0c9636	-0.54916704
137	0xbdc07b88	-0.09398562
138	0x3e7bfd57	0.2460836
139	0x3f1612f7	0.5862269
140	0x3f69cd6f	0.9132909
141	0x3fa923ff	1.321411
142	0x3fd83b27	1.6893052
143	0x40080608	2.125368
144	0xbf119676	-0.5687021
145	0xbdd699f7	-0.10478585
146	0x3e3f1e25	0.18663843
147	0x3f145f1d	0.5795763
148	0x3f825c17	1.0184354
149	0x3fa74723	1.3068584
150	0x3fd4fb5b	1.6639208
151	0x3ffe5be4	1.9871793
152	0xbf18d888	-0.597054
153	0xbe3e37b9	-0.18575944
154	0x3e371290	0.17878175
155	0x3f105307	0.5637669
156	0x3f6c4744	0.9229624
157	0x3faabed3	1.3339485
158	0x3fdb8515	1.7149988
159	0x4001e98d	2.0298798
160	0xbf0d6041	-0.55224997
161	0xbe43c1fe	-0.19116971
162	0x3e87d306	0.26528186
163	0x3f0c8c3c	0.5490148
164	0x3f78e0f7	0.9721827
165	0x3fa4db03	1.2879337
166	0x3fd2c485	1.6466223
167	0x400242aa	2.0353189
168	0xbf07a2bf	-0.52982706
169	0xbdf2ffcb	-0.11865195
170	0x3e7442d7	0.23853622
171	0x3f1694ee	0.58821
172	0x3f6cd40e	0.9251107
173	0x3fa45943	1.283974
174	0x3fdccc31	1.7249814
175	0x4000b575	2.0110753
176	0xbf0f7b4e	-0.56047523
177	0xbe408b69	-0.18803181
178	0x3e509524	0.20369393
179	0x3f158932	0.5841247
180	0x3f80a7e7	1.005124
181	0x3fa75cc6	1.3075187
182	0x3fd3033f	1.6485366
183	0x4000c03c	2.011733
184	0xbef37c31	-0.47555688
185	0xbe1c6282	-0.15271953
186	0x3e51acc3	0.2047606
187	0x3f0fcc5d	0.5617121
188	0x3f8148e2	1.0100367
189	0x3fa87065	1.31593
190	0x3fd41d69	1.6571475
191	0x3fff0c45	1.9925619
192	0xbf06660e	-0.52499473
193	0xbe44cae8	-0.19218028
194	0x3e4413bc	0.19148153
195	0x3f1b4bb6	0.606624
196	0x3f6de96a	0.92934287
197	0x3fa985cf	1.324396
198	0x3fd0b184	1.6304173
199	0x40068dae	2.1023974
200	0xbf0f5217	-0.55984634
201	0xbe3feffb	-0.18743889
202	0x3e395344	0.1809817
203	0x3f1ced32	0.6129943
204	0x3f6f3c69	0.93451554
205	0x3fa519a5	1.2898451
206	0x3fdd7b8f	1.7303332
207	0x40048e67	2.0711915
208	0xbf079d6f	-0.529746
209	0xbe0ee989	-0.13956274
210	0x3e53dcf2	0.20689753
211	0x3f10ff7f	0.56639856
212	0x3f71e18d	0.9448479
213	0x3fab8dba	1.3402627
214	0x3fd368a3	1.6516308
215	0x4004c530	2.0745354
216	0xbf00cac2	-0.50309384
217	0xbe2101e7	-0.15723382
218	0x3e59c32e	0.21265861
219	0x3f13ea13	0.57779044
220	0x3f7b45df	0.9815349
221	0x3fa99ccb	1.3250974
222	0x3fd5be37	1.6698674
223	0x40022a52	2.033833
224	0xbf0642b3	-0.52445525
225	0xbe488d7d	-0.19585223
226	0x3e703511	0.23457743
227	0x3f17cca2	0.5929662
228	0x3f69379b	0.9110047
229	0x3fa65064	1.2993283
230	0x3fd7c5c0	1.6857224
231	0x4006b30b	2.104678
232	0xbef59f15	-0.47972932
233	0xbe22f28f	-0.15912841
234	0x3e508f4f	0.20367168
235	0x3f0f8a73	0.5607063
236	0x3f65e21a	0.8979813
237	0x3fa1d7c8	1.2643976
238	0x3fd402bf	1.6563338
239	0x40046a63	2.0689933
240	0xbf1311c6	-0.57448995
241	0xbe5cfac9	-0.21580042
242	0x3e5d330d	0.21601506
243	0x3f079537	0.5296206
244	0x3f7f964e	0.9983872
245	0x3fa74bf7	1.3070058
246	0x3fd9daec	1.7019935
247	0x3ffdb8d4	1.982203
248	0xbf02a7b0	-0.5103712
249	0xbe3fb578	-0.18721569
250	0x3e996a1a	0.29963762
251	0x3f141ec5	0.5785945
252	0x3f66a10c	0.9008949
253	0x3fa4372c	1.2829337
254	0x3fdb5279	1.7134544
255	0x40021465	2.0324948

trigkan2.equal_size_conv.weight f4 [24, 1, 8, 32]
0	0xbb2bc8d0	-0.0026212223
1	0xbdaf7446	-0.08567099
2	0xbcef30b5	-0.02919803
3	0xbcefd7bf	-0.02927768
4	0xbda5ed1d	-0.081018664
5	0xbd48cd74	-0.04902406
6	0xbdb76652	-0.08955063
7	0xbe1268cf	-0.14297794
8	0x3e504086	0.20337114
9	0x3eaa5ae7	0.33272478
10	0x3a40b4f9	0.0007351186
11	0x3c714d20	0.014727861
12	0xbccacd82	-0.024756197
13	0xbbe39b0f	-0.0069459747
14	0xbce41452	-0.02784172
15	0xbb9bae30	-0.0047509894
16	0xbd45f97c	-0.04833363
17	0x3c8327dc	0.016010217
18	0x3e031d18	0.12804067
19	0xbc7ba1f5	-0.015358438
20	0xbcd5fa7b	-0.026120415
21	0xbe1b8a13	-0.1518939
22	0xbd2ca634	-0.04215069
23	0xbdc1155f	-0.09427904
24	0x3d390c55	0.045177776
25	0x3c6db177	0.014507643
26	0x3d638079	0.055542443
27	0x3d5bf4a5	0.053700108
28	0xbe054a55	-0.13016637
29	0x3e02236b	0.12708823
30	0x3e5dccf7	0.21660219
31	0xbca63a03	-0.020291334
32	0xbbc70605	-0.0060737156
33	0x3eb152f1	0.34633592
34	0x3e1b5a28	0.1517111
35	0x3cae0e19	0.021246957
36	0x3dc03999	0.09385986
37	0xbd95838c	-0.07300481
38	0xbd28c1f7	-0.041200604
39	0xbc51936c	-0.012791496
40	0x3abd83f9	0.0014458887
41	0x3c777dd7	0.015105686
42	0xbbdbcf8d	-0.0067080916
43	0x3bea33b8	0.0071472786
44	0x3d164cb9	0.036694262
45	0x3dc53fac	0.09631285
46	0x3d576117	0.052582826
47	0x3c07d2fd	0.00829005
48	0x3cf99e0a	0.030470867
49	0x3d67a8bc	0.056557402
50	0xbbbe9ab2	-0.005816781
51	0x3b85a776	0.004078801
52	0x3c4dd5fa	0.012563223
53	0xbc821682	-0.015879873
54	0xbd65eded	-0.056135107
55	0xbd54ccb8	-0.051953048
56	0x3db01741	0.08598185
57	0xbd170ad4	-0.03687556
58	0x3dead625	0.11466626
59	0x3b8f376f	0.004370622
60	0xbc985dea	-0.01859947
61	0x3d891724	0.06693867
62	0x3c76df42	0.015067877
63	0xbd90155b	-0.07035323
64	0xbbdbc929	-0.00670733
65	0xbda1909f	-0.078889124
66	0x3c34f1f5	0.011044015
67	0x3d0018b9	0.031273577
68	0x3e0f498b	0.13992898
69	0xbd4e9daf	-0.050443348
70	0x3d83223a	0.064030126
71	0x3da27e5f	0.079342596
72	0xbd189d0d	-0.03725915
73	0xbd2b1245	-0.04176547
74	0xbdc635ed	-0.09678254
75	0xbb9a4861	-0.0047083353
76	0xbdeb5a34	-0.11491814
77	0xbe386f57	-0.18011223
78	0x3dea24be	0.11432789
79	0x3cecc7ca	0.02890386
80	0x3ce49acc	0.027905844
81	0x3cfb64fa	0.030687798
82	0x3d94633c	0.0724549
83	0x3ce0f724	0.027461596
84	0x3ca891bd	0.020577306
85	0x3c63819e	0.013885884
86	0x3c9aa46d	0.018877232
87	0xbd24e54c	-0.040257737
88	0x3d366eea	0.04453937
89	0x3d8f5f91	0.0700065
90	0xbd3e297b	-0.046426278
91	0xbcb32e78	-0.021872744
92	0x3adc3aa5	0.0016802145
93	0x3d2c4c56	0.042064987
94	0x3c501c63	0.01270208
95	0xbd069cd9	-0.032864425
96	0x3cd9827f	0.026551483
97	0x3d0ce60a	0.03439907
98	0xbd0fb700	-0.03508663
99	0xbd2ee380	-0.04269743
100	0xbd8c98f1	-0.06865109
101	0xbd8b0d40	-0.067896366
102	0x3dd74c77	0.105126314
103	0x3c438a7f	0.0119348755
104	0x3e2dbd6f	0.16966794
105	0xbd240da1	-0.04005206
106	0x3cbbcee7	0.022925807
107	0x3e28252e	0.16420433
108	0x3bc32e6e	0.0059564626
109	0xbbdfdd7d	-0.0068318234
110	0xbd1381c9	-0.036012445
111	0xb98abf2f	-0.00026463854
112	0x3d914ea0	0.07095075
113	0x3c84faee	0.016232934
114	0x3db1f080	0.0868845
115	0xbd2538a5	-0.040337224
116	0x3d424c3e	0.04743599
117	0xbc481d73	-0.0122140525
118	0xbd0f47e5	-0.034980673
119	0xbd345415	-0.0440255
120	0xbd8a9470	-0.067665935
121	0xb993ec9b	-0.0002821431
122	0x3ceeeb3d	0.029164905
123	0x3cf8fe0b	0.030394575
124	0xbdda9c41	-0.10674334
125	0x3e075427	0.13215695
126	0x3e0bee94	0.13665229
127	0x3cb7a1e4	0.022416063
128	0xbd4f2857	-0.05057558
129	0x3c439890	0.011938229
130	0x3db8ae58	0.090176284
131	0x3dff9eb3	0.12481441
132	0x3b32fa85	0.0027309966
133	0xbd4d754b	-0.050160687
134	0x3d67dc5d	0.05660664
135	0xbd1d5221	-0.038408402
136	0x3d63b9ad	0.055596996
137	0x3b077080	0.002066642
138	0x3e0d8637	0.1382073
139	0x3d524f50	0.05134517
140	0xbc8d175b	-0.01722305
141	0x3d84ea95	0.064900555
142	0xbd78a95b	-0.060708385
143	0xbd126dee	-0.03574937
144	0xbd0ee43a	-0.034885623
145	0xbd2d1954	-0.042260483
146	0xbdba3525	-0.09092168
147	0x3d189b6e	0.037257604
148	0x3e112350	0.14173627
149	0xbe0e530f	-0.13898872
150	0xbd9c41d1	-0.07629741
151	0xbd063e08	-0.032774
152	0xbc3fb86b	-0.0117016835
153	0xbd464e62	-0.048414595
154	0xbd779dcd	-0.060453225
155	0xbda2048b	-0.07911023
156	0xbda6d9f7	-0.08147042
157	0x3daf4441	0.0855794
158	0xbce4aa70	-0.027913302
159	0x3dc4847b	0.09595581
160	0x3cad3177	0.02114175
161	0xbb5fdd75	-0.0034159098
162	0x3e22c41e	0.15895125
163	0x39dfe59b	0.00042704944
164	0x3cb0bb78	0.021573767
165	0x3d2f1301	0.042742733
166	0x3d5d69b4	0.054055884
167	0x3c897e4f	0.016783861
168	0xbcff27dc	-0.031146936
169	0xbe0aaa54	-0.13541538
170	0xbdd7df63	-0.105406545
171	0x3ca03088	0.019554392
172	0x3c9c72f4	0.019097783
173	0xbdbec7fd	-0.093154885
174	0xbda5d54b	-0.08097323
175	0x3c588776	0.01321589
176	0xb9bcc540	-0.00036005117
177	0x3cd00f46	0.025397908
178	0xbabf6821	-0.0014603176
179	0xbc801c07	-0.015638364
180	0xbdbb796e	-0.0915402
181	0x3d8f6ef0	0.070035815
182	0xbc13dbc7	-0.009024567
183	0x3db2a727	0.08723288
184	0x3d4db03a	0.05021689
185	0xbe532233	-0.20618515
186	0xbc6a4f7c	-0.014301177
187	0x3de059ef	0.109546535
188	0x3e3c28a2	0.18374875
189	0x3d989ff2	0.07452382
190	0x39adddd8	0.00033162418
191	0x3d0754e4	0.033039942
192	0xbd22ac19	-0.039714906
193	0x3daef885	0.08543495
194	0xbd24c9c9	-0.0402315
195	0x3deebc10	0.11656964
196	0x3e0ed513	0.13948469
197	0xbceba1f8	-0.028763756
198	0xbdb932b6	-0.090428755
199	0xbc312177	-0.010811201
200	0x3cbb7311	0.022882016
201	0x3d864702	0.065565124
202	0xbd28e107	-0.041230228
203	0x3d594bc0	0.053050756
204	0x3df0908d	0.11746321
205	0xbe39963a	-0.18123713
206	0x3dd3ba26	0.10338239
207	0x3ccf719c	0.025322728
208	0x3b5c0ae1	0.003357582
209	0xbd24d339	-0.0402405
210	0xbd1c1422	-0.038105138
211	0x3e375863	0.1790481
212	0xbd04d17e	-0.03242635
213	0xbd0f145b	-0.034931522
214	0x397e9afe	0.00024281067
215	0xbd0e2869	-0.034706507
216	0x3cb343a7	0.021882845
217	0x3cebddb6	0.028792243
218	0x3d919da4	0.07110146
219	0x3d9fe776	0.078078195
220	0x3df0aaf7	0.11751359
221	0xbbbba9f4	-0.005727047
222	0xbc4b8742	-0.012422385
223	0xbdd38ec1	-0.103299625
224	0xbc9e20b0	-0.019302696
225	0xbd638c86	-0.055553935
226	0x3a9339a2	0.0011232386
227	0xbddd37d2	-0.108016625
228	0xbd292a43	-0.04130007
229	0x3d443200	0.047899246
230	0x3ddd1982	0.10795881
231	0x3e06b386	0.1315442
232	0x3e53f491	0.20698763
233	0xbd82beb5	-0.06384031
234	0xbd6a720a	-0.057237662
235	0x3d2bd0c2	0.041947134
236	0xbd3c447f	-0.04596376
237	0x3ac90197	0.0015335557
238	0xbd013e59	-0.0315536
239	0xbbe2123e	-0.0068991473
240	0xbd6c8afc	-0.057749733
241	0x3c8fb779	0.017543541
242	0xbda080f6	-0.07837097
243	0x3cf34fe7	0.029701186
244	0x3ca5e161	0.02024907
245	0x3d93b3b9	0.07212014
246	0x3cc5c15a	0.024140049
247	0x3d3d5fe6	0.046234034
248	0x3b3bb841	0.002864376
249	0xbdbbd679	-0.09171767
250	0x3e80ac69	0.2513154
251	0x3dd5ff22	0.10449053
252	0xbdd9863d	-0.10621307
253	0xbc253dfc	-0.010085579
254	0x3ca84372	0.020539973
255	0x3dae77f9	0.08518977

trigkan2.equal_size_conv.bias f4 [24]
0	0x3da42ea6	0.0801671
1	0xbded2246	-0.11578803
2	0xbde42a03	-0.111408256
3	0xbcf63981	-0.030056717
4	0x3d97fc5d	0.07421181
5	0x3cc07067	0.023491098
6	0xbb37ddd4	-0.0028055804
7	0xbd9cdca2	-0.0765927
8	0x3b3ea8ec	0.0029092385
9	0x3dcce964	0.10005453
10	0x3c94e2e8	0.018174604
11	0x3d7d003e	0.06176781
12	0xbc9f320a	-0.01943304
13	0xbd884f70	-0.066557765
14	0xbd477ec9	-0.048704896
15	0x3c9c7db6	0.019102912
16	0xbd83e4f7	-0.06440156
17	0xbce81736	-0.02833138
18	0xbd7fb8eb	-0.06243221
19	0xbbf90342	-0.0075992653
20	0x3d102509	0.03519157
21	0x3d9683b2	0.07349338
22	0xbc4606d5	-0.01208659
23	0x3cb80b32	0.022466276

bn2.weight f4 [24]
0	0x3f5dffa1	0.86718184
1	0x3f6690e4	0.90064836
2	0x3f4f14c2	0.8089105
3	0x3f625670	0.88413143
4	0x3f5f0318	0.87114096
5	0x3f5f6416	0.87262094
6	0x3f48cbce	0.7843598
7	0x3f5acf1c	0.85472274
8	0x3f5c3143	0.8601267
9	0x3f4b1865	0.793341
10	0x3f68e8f6	0.9098047
11	0x3f61d7ef	0.88220114
12	0x3f61a9f6	0.88149965
13	0x3f598a71	0.8497687
14	0x3f61be2b	0.881808
15	0x3f63149c	0.8870332
16	0x3f4f6492	0.81012833
17	0x3f64259d	0.89119893
18	0x3f5df68a	0.86704314
19	0x3f6b76f8	0.91978407
20	0x3f65686e	0.8961247
21	0x3f627999	0.88466793
22	0x3f557cf2	0.83393776
23	0x3f6c49c5	0.92300063

bn2.bias f4 [24]
0	0xbaadcfd7	-0.0013260794
1	0x3c4b30ae	0.012401743
2	0x3da74ae3	0.081685804
3	0x3ca91501	0.020639898
4	0xbb8e89ef	-0.004349939
5	0xbc3467eb	-0.011011104
6	0xbc6e15e0	-0.014531583
7	0x3b619763	0.003442251
8	0xbba85075	-0.0051365444
9	0xbddff6b1	-0.109357245
10	0xbc6e5a29	-0.014547863
11	0xbbcda205	-0.0062754177
12	0x3c2417d5	0.010015448
13	0xbbea3a07	-0.0071480307
14	0x3cbf7027	0.023368908
15	0xbc6b2dd4	-0.014354188
16	0x3cf340a9	0.029693918
17	0x3d227ed1	0.039671723
18	0x3d0176e8	0.03160754
19	0xbbfdd3af	-0.007746182
20	0x3c180a00	0.009279728
21	0xbc96c864	-0.0184061
22	0x3b8ea99b	0.0043537146
23	0x3c9422e8	0.01808305

trigkan3.phase_low f4 [24, 8]
0	0xc003d854	-2.0600786
1	0xbfd81a9d	-1.6883122
2	0xbf9e3721	-1.2360574
3	0xbf771208	-0.9651189
4	0xbf041570	-0.5159521
5	0xbe44c015	-0.19213898
6	0xbe1f61b5	-0.15564616
7	0x3f10969c	0.5647981
8	0xc0143d7b	-2.3162525
9	0xbfcc2a98	-1.5950499
10	0xbfa34478	-1.275527
11	0xbf515d22	-0.81782734
12	0xbf0fbd23	-0.56147975
13	0xbe827cc9	-0.2548583
14	0x3e5874e0	0.21138334
15	0x3f10e806	0.5660404
16	0xc00b914c	-2.1807432
17	0xbff25f09	-1.8935252
18	0xbf9e1335	-1.2349612
19	0xbf6915b7	-0.9104876
20	0xbf0976b8	-0.53696775
21	0xbe5d76c8	-0.21627343
22	0x3e3e37c9	0.18575968
23	0x3f0a9afe	0.5414275
24	0xbffd6d86	-1.9799049
25	0xbffc6ce7	-1.9720734
26	0xbfa8045a	-1.3126328
27	0xbf715052	-0.94263184
28	0xbf046a43	-0.5172464
29	0xbea13254	-0.3148371
30	0x3e3054b3	0.1721981
31	0x3f1c3763	0.61022013
32	0xbfff53bd	-1.994743
33	0xbfd1d77c	-1.6393886
34	0xbfadac0f	-1.3568133
35	0xbf6b9387	-0.92021984
36	0xbf1cebc9	-0.6129728
37	0xbf069430	-0.52569866
38	0x3dc62659	0.09675283
39	0x3ea2be17	0.31785652
40	0xbfff9bef	-1.9969462
41	0xbfd46850	-1.6594334
42	0xbfa86ddf	-1.315853
43	0xbfa52688	-1.2902384
44	0xbf40ba6f	-0.75284475
45	0xbe6174fa	-0.2201728
46	0xbcdd282c	-0.026996695
47	0x3f13e7d3	0.5777561
48	0xc00114b2	-2.0168881
49	0xbfdf1fa0	-1.7431526
50	0xbfd5e5c0	-1.6710739
51	0xbf758933	-0.95912474
52	0xbf1b6af5	-0.6071008
53	0xbe867609	-0.2626193
54	0x3e4abed5	0.19799359
55	0x3efb7ff7	0.49121067
56	0xc010e890	-2.2641945
57	0xbfd799e7	-1.6843842
58	0xbf9bcacb	-1.2171263
59	0xbf9a8ff3	-1.207518
60	0xbf0209d9	-0.50796276
61	0xbdedefdb	-0.116180144
62	0x3de10f83	0.10989287
63	0x3f12668b	0.5718772
64	0xbff79e53	-1.9345192
65	0xbfc56a83	-1.542313
66	0xbfa48b2e	-1.2854974
67	0xbf96142a	-1.1724904
68	0xbf3dffad	-0.74218255
69	0xbee6122a	-0.44935733
70	0x3dea5ac0	0.114430904
71	0x3f247b05	0.6425021
72	0xc002f23c	-2.0460348
73	0xbfd78a0b	-1.6839002
74	0xbf9979d3	-1.1990303
75	0xbf80fe98	-1.0077696
76	0xbf0631a3	-0.5241949
77	0xbe569897	-0.20956646
78	0xbe045770	-0.1292398
79	0x3ec13c09	0.37741116
80	0xc0027449	-2.0383475
81	0xbfdacf49	-1.7094508
82	0xbfd86345	-1.6905295
83	0xbf60cb2c	-0.87810016
84	0xbf3cc569	-0.73738724
85	0xbee64740	-0.44976234
86	0x3d1ede61	0.038786296
87	0x3f1902ba	0.59769785
88	0xc0045a2c	-2.0680037
89	0xbfdd9797	-1.7311887
90	0xbfa24f99	-1.2680541
91	0xbf5a8505	-0.8535922
92	0xbf0810cd	-0.53150636
93	0xbe86980e	-0.26287884
94	0x3e517e84	0.20458418
95	0x3e8b0320	0.27150822
96	0xc001694e	-2.0220523
97	0xc0014c84	-2.0202951
98	0xbfa41ab9	-1.2820655
99	0xbf96280a	-1.1730969
100	0xbf086f28	-0.5329461
101	0xbe635310	-0.22199655
102	0x3e080d2e	0.13286278
103	0x3f031e7e	0.512184
104	0xc0032bba	-2.0495439
105	0xbfe08281	-1.7539827
106	0xbfa8b9e9	-1.3181735
107	0xbf848797	-1.0353879
108	0xbf50f2cf	-0.81620497
109	0xbe100c52	-0.140672
110	0x3e428dd4	0.18999416
111	0x3f092fa2	0.53588307
112	0xc0014829	-2.0200293
113	0xc00084d9	-2.0081084
114	0xbfc1c944	-1.5139546
115	0xbf688de2	-0.90841496
116	0xbf02dbcc	-0.51116633
117	0xbe36421d	-0.17798658
118	0x3e5b2139	0.21399392
119	0x3f044e54	0.5168202
120	0xc001f59c	-2.0306158
121	0xbfc9c624	-1.5763593
122	0xbfa38b7f	-1.2776946
123	0xbf95cd9b	-1.1703371
124	0xbf4ff23b	-0.8122899
125	0xbe02d68e	-0.12777159
126	0x3e1a3634	0.1505974
127	0x3f05afec	0.5222156
128	0xc0019e5f	-2.0252912
129	0xbfe734ef	-1.8063029
130	0xbfa064e1	-1.2530786
131	0xbf9e7650	-1.2379856
132	0xbf00b33f	-0.5027351
133	0xbe545e9a	-0.20739213
134	0x3e598a38	0.21244133
135	0x3f0f9f68	0.5610261
136	0xbffe03ab	-1.9844869
137	0xc0015511	-2.020817
138	0xbf9b9c85	-1.2157141
139	0xbf871591	-1.0553457
140	0xbf5b89e2	-0.8575727
141	0xbe3b0fef	-0.18267797
142	0x3e05ef7f	0.13079642
143	0x3f0fd6db	0.5618722
144	0xc0175770	-2.3647118
145	0xbfe25415	-1.768191
146	0xbfb25762	-1.3932917
147	0xbf6de112	-0.92921555
148	0xbf169a0d	-0.5882881
149	0xbe3e36a8	-0.18575537
150	0x3e3a3dec	0.18187684
151	0x3ef8771d	0.48528376
152	0xc00492b8	-2.071455
153	0xc000108b	-2.0010097
154	0xbfa34a4d	-1.275705
155	0xbf7e4441	-0.993229
156	0xbf460c12	-0.7736217
157	0xbe064830	-0.13113475
158	0x3e3955ab	0.18099086
159	0x3f096620	0.53671455
160	0xc000c7ab	-2.0121868
161	0xbfc71774	-1.5554032
162	0xbfacae8a	-1.3490765
163	0xbf871a7a	-1.0554955
164	0xbf0cb835	-0.5496858
165	0xbeee16ab	-0.4650167
166	0xbd86232e	-0.06549679
167	0x3ef94188	0.4868281
168	0xc00374bb	-2.0539997
169	0xbfd8f72b	-1.695043
170	0xbf9ea055	-1.239268
171	0xbf68dd58	-0.90962744
172	0xbf1b9919	-0.60780483
173	0xbf0851ed	-0.5325001
174	0xbcbf534a	-0.023355145
175	0x3eb76d02	0.35825354
176	0xc0014b12	-2.020207
177	0xbfdc9ec9	-1.7235957
178	0xbfd2942d	-1.645147
179	0xbf71f077	-0.94507545
180	0xbf10b14b	-0.5652053
181	0xbe1b0718	-0.15139425
182	0x3e52c025	0.2058111
183	0x3f0f2576	0.55916536
184	0xc002d2b3	-2.04411
185	0xbfcea91e	-1.614536
186	0xbfa48dc8	-1.2855768
187	0xbf91190c	-1.1335769
188	0xbf36edc1	-0.71456534
189	0xbee141d7	-0.43995544
190	0x3e179649	0.14803423
191	0x3e829889	0.25507
